{"format": "graph-model", "generatedBy": "2.12.0", "convertedBy": "TensorFlow.js Converter v4.17.0", "signature": {"inputs": {"sequential_input": {"name": "sequential_input:0", "dtype": "DT_FLOAT", "tensorShape": {"dim": [{"size": "-1"}, {"size": "224"}, {"size": "224"}, {"size": "3"}]}}}, "outputs": {"dense": {"name": "Identity:0", "dtype": "DT_FLOAT", "tensorShape": {"dim": [{"size": "-1"}, {"size": "80"}]}}}}, "modelTopology": {"node": [{"name": "StatefulPartitionedCall/sequential_2/sequential/resizing/resize/size", "op": "Const", "attr": {"value": {"tensor": {"dtype": "DT_INT32", "tensorShape": {"dim": [{"size": "2"}]}}}, "dtype": {"type": "DT_INT32"}}}, {"name": "StatefulPartitionedCall/sequential_2/dense/MatMul/ReadVariableOp", "op": "Const", "attr": {"value": {"tensor": {"dtype": "DT_FLOAT", "tensorShape": {"dim": [{"size": "1000"}, {"size": "80"}]}}}, "dtype": {"type": "DT_FLOAT"}}}, {"name": "StatefulPartitionedCall/sequential_2/dense/BiasAdd/ReadVariableOp", "op": "Const", "attr": {"value": {"tensor": {"dtype": "DT_FLOAT", "tensorShape": {"dim": [{"size": "80"}]}}}, "dtype": {"type": "DT_FLOAT"}}}, {"name": "sequential_input", "op": "Placeholder", "attr": {"shape": {"shape": {"dim": [{"size": "-1"}, {"size": "224"}, {"size": "224"}, {"size": "3"}]}}, "dtype": {"type": "DT_FLOAT"}}}, {"name": "StatefulPartitionedCall/sequential_2/efficientnet_v2_s2/StatefulPartitionedCall/StatefulPartitionedCall/StatefulPartitionedCall/stem/StatefulPartitionedCall/conv2d/Conv2D_weights", "op": "Const", "attr": {"value": {"tensor": {"dtype": "DT_FLOAT", "tensorShape": {"dim": [{"size": "3"}, {"size": "3"}, {"size": "3"}, {"size": "32"}]}}}, "dtype": {"type": "DT_FLOAT"}}}, {"name": "StatefulPartitionedCall/sequential_2/efficientnet_v2_s2/StatefulPartitionedCall/StatefulPartitionedCall/StatefulPartitionedCall/stem/StatefulPartitionedCall/conv2d/Conv2D_bn_offset", "op": "Const", "attr": {"value": {"tensor": {"dtype": "DT_FLOAT", "tensorShape": {"dim": [{"size": "32"}]}}}, "dtype": {"type": "DT_FLOAT"}}}, {"name": "StatefulPartitionedCall/sequential_2/efficientnet_v2_s2/StatefulPartitionedCall/StatefulPartitionedCall/StatefulPartitionedCall/blocks_0/StatefulPartitionedCall/conv2d/Conv2D_weights", "op": "Const", "attr": {"value": {"tensor": {"dtype": "DT_FLOAT", "tensorShape": {"dim": [{"size": "3"}, {"size": "3"}, {"size": "32"}, {"size": "16"}]}}}, "dtype": {"type": "DT_FLOAT"}}}, {"name": "StatefulPartitionedCall/sequential_2/efficientnet_v2_s2/StatefulPartitionedCall/StatefulPartitionedCall/StatefulPartitionedCall/blocks_0/StatefulPartitionedCall/conv2d/Conv2D_bn_offset", "op": "Const", "attr": {"value": {"tensor": {"dtype": "DT_FLOAT", "tensorShape": {"dim": [{"size": "16"}]}}}, "dtype": {"type": "DT_FLOAT"}}}, {"name": "StatefulPartitionedCall/sequential_2/efficientnet_v2_s2/StatefulPartitionedCall/StatefulPartitionedCall/StatefulPartitionedCall/blocks_1/StatefulPartitionedCall/conv2d/Conv2D_weights", "op": "Const", "attr": {"value": {"tensor": {"dtype": "DT_FLOAT", "tensorShape": {"dim": [{"size": "3"}, {"size": "3"}, {"size": "16"}, {"size": "64"}]}}}, "dtype": {"type": "DT_FLOAT"}}}, {"name": "StatefulPartitionedCall/sequential_2/efficientnet_v2_s2/StatefulPartitionedCall/StatefulPartitionedCall/StatefulPartitionedCall/blocks_1/StatefulPartitionedCall/conv2d/Conv2D_bn_offset", "op": "Const", "attr": {"value": {"tensor": {"dtype": "DT_FLOAT", "tensorShape": {"dim": [{"size": "64"}]}}}, "dtype": {"type": "DT_FLOAT"}}}, {"name": "StatefulPartitionedCall/sequential_2/efficientnet_v2_s2/StatefulPartitionedCall/StatefulPartitionedCall/StatefulPartitionedCall/blocks_1/StatefulPartitionedCall/conv2d_1/Conv2D_weights", "op": "Const", "attr": {"value": {"tensor": {"dtype": "DT_FLOAT", "tensorShape": {"dim": [{"size": "1"}, {"size": "1"}, {"size": "64"}, {"size": "32"}]}}}, "dtype": {"type": "DT_FLOAT"}}}, {"name": "StatefulPartitionedCall/sequential_2/efficientnet_v2_s2/StatefulPartitionedCall/StatefulPartitionedCall/StatefulPartitionedCall/head/StatefulPartitionedCall/conv2d/Conv2D_weights", "op": "Const", "attr": {"value": {"tensor": {"dtype": "DT_FLOAT", "tensorShape": {"dim": [{"size": "1"}, {"size": "1"}, {"size": "192"}, {"size": "1280"}]}}}, "dtype": {"type": "DT_FLOAT"}}}, {"name": "StatefulPartitionedCall/sequential_2/efficientnet_v2_s2/StatefulPartitionedCall/StatefulPartitionedCall/StatefulPartitionedCall/blocks_1/StatefulPartitionedCall/conv2d_1/Conv2D_bn_offset", "op": "Const", "attr": {"value": {"tensor": {"dtype": "DT_FLOAT", "tensorShape": {"dim": [{"size": "32"}]}}}, "dtype": {"type": "DT_FLOAT"}}}, {"name": "StatefulPartitionedCall/sequential_2/efficientnet_v2_s2/StatefulPartitionedCall/StatefulPartitionedCall/StatefulPartitionedCall/blocks_2/StatefulPartitionedCall/conv2d/Conv2D_weights", "op": "Const", "attr": {"value": {"tensor": {"dtype": "DT_FLOAT", "tensorShape": {"dim": [{"size": "3"}, {"size": "3"}, {"size": "32"}, {"size": "128"}]}}}, "dtype": {"type": "DT_FLOAT"}}}, {"name": "StatefulPartitionedCall/sequential_2/efficientnet_v2_s2/StatefulPartitionedCall/StatefulPartitionedCall/StatefulPartitionedCall/blocks_2/StatefulPartitionedCall/conv2d/Conv2D_bn_offset", "op": "Const", "attr": {"value": {"tensor": {"dtype": "DT_FLOAT", "tensorShape": {"dim": [{"size": "128"}]}}}, "dtype": {"type": "DT_FLOAT"}}}, {"name": "StatefulPartitionedCall/sequential_2/efficientnet_v2_s2/StatefulPartitionedCall/StatefulPartitionedCall/StatefulPartitionedCall/blocks_2/StatefulPartitionedCall/conv2d_1/Conv2D_weights", "op": "Const", "attr": {"value": {"tensor": {"dtype": "DT_FLOAT", "tensorShape": {"dim": [{"size": "1"}, {"size": "1"}, {"size": "128"}, {"size": "32"}]}}}, "dtype": {"type": "DT_FLOAT"}}}, {"name": "StatefulPartitionedCall/sequential_2/efficientnet_v2_s2/StatefulPartitionedCall/StatefulPartitionedCall/StatefulPartitionedCall/blocks_2/StatefulPartitionedCall/conv2d_1/Conv2D_bn_offset", "op": "Const", "attr": {"value": {"tensor": {"dtype": "DT_FLOAT", "tensorShape": {"dim": [{"size": "32"}]}}}, "dtype": {"type": "DT_FLOAT"}}}, {"name": "StatefulPartitionedCall/sequential_2/efficientnet_v2_s2/StatefulPartitionedCall/StatefulPartitionedCall/StatefulPartitionedCall/blocks_3/StatefulPartitionedCall/conv2d/Conv2D_weights", "op": "Const", "attr": {"value": {"tensor": {"dtype": "DT_FLOAT", "tensorShape": {"dim": [{"size": "3"}, {"size": "3"}, {"size": "32"}, {"size": "128"}]}}}, "dtype": {"type": "DT_FLOAT"}}}, {"name": "StatefulPartitionedCall/sequential_2/efficientnet_v2_s2/StatefulPartitionedCall/StatefulPartitionedCall/StatefulPartitionedCall/blocks_3/StatefulPartitionedCall/conv2d/Conv2D_bn_offset", "op": "Const", "attr": {"value": {"tensor": {"dtype": "DT_FLOAT", "tensorShape": {"dim": [{"size": "128"}]}}}, "dtype": {"type": "DT_FLOAT"}}}, {"name": "StatefulPartitionedCall/sequential_2/efficientnet_v2_s2/StatefulPartitionedCall/StatefulPartitionedCall/StatefulPartitionedCall/blocks_3/StatefulPartitionedCall/conv2d_1/Conv2D_weights", "op": "Const", "attr": {"value": {"tensor": {"dtype": "DT_FLOAT", "tensorShape": {"dim": [{"size": "1"}, {"size": "1"}, {"size": "128"}, {"size": "48"}]}}}, "dtype": {"type": "DT_FLOAT"}}}, {"name": "StatefulPartitionedCall/sequential_2/efficientnet_v2_s2/StatefulPartitionedCall/StatefulPartitionedCall/StatefulPartitionedCall/blocks_18/StatefulPartitionedCall/conv2d_1/Conv2D_weights", "op": "Const", "attr": {"value": {"tensor": {"dtype": "DT_FLOAT", "tensorShape": {"dim": [{"size": "1"}, {"size": "1"}, {"size": "1152"}, {"size": "192"}]}}}, "dtype": {"type": "DT_FLOAT"}}}, {"name": "StatefulPartitionedCall/sequential_2/efficientnet_v2_s2/StatefulPartitionedCall/StatefulPartitionedCall/StatefulPartitionedCall/blocks_3/StatefulPartitionedCall/conv2d_1/Conv2D_bn_offset", "op": "Const", "attr": {"value": {"tensor": {"dtype": "DT_FLOAT", "tensorShape": {"dim": [{"size": "48"}]}}}, "dtype": {"type": "DT_FLOAT"}}}, {"name": "StatefulPartitionedCall/sequential_2/efficientnet_v2_s2/StatefulPartitionedCall/StatefulPartitionedCall/StatefulPartitionedCall/blocks_4/StatefulPartitionedCall/conv2d/Conv2D_weights", "op": "Const", "attr": {"value": {"tensor": {"dtype": "DT_FLOAT", "tensorShape": {"dim": [{"size": "3"}, {"size": "3"}, {"size": "48"}, {"size": "192"}]}}}, "dtype": {"type": "DT_FLOAT"}}}, {"name": "StatefulPartitionedCall/sequential_2/efficientnet_v2_s2/StatefulPartitionedCall/StatefulPartitionedCall/StatefulPartitionedCall/blocks_4/StatefulPartitionedCall/conv2d/Conv2D_bn_offset", "op": "Const", "attr": {"value": {"tensor": {"dtype": "DT_FLOAT", "tensorShape": {"dim": [{"size": "192"}]}}}, "dtype": {"type": "DT_FLOAT"}}}, {"name": "StatefulPartitionedCall/sequential_2/efficientnet_v2_s2/StatefulPartitionedCall/StatefulPartitionedCall/StatefulPartitionedCall/blocks_4/StatefulPartitionedCall/conv2d_1/Conv2D_weights", "op": "Const", "attr": {"value": {"tensor": {"dtype": "DT_FLOAT", "tensorShape": {"dim": [{"size": "1"}, {"size": "1"}, {"size": "192"}, {"size": "48"}]}}}, "dtype": {"type": "DT_FLOAT"}}}, {"name": "StatefulPartitionedCall/sequential_2/efficientnet_v2_s2/StatefulPartitionedCall/StatefulPartitionedCall/StatefulPartitionedCall/blocks_18/StatefulPartitionedCall/conv2d_1/Conv2D_bn_offset", "op": "Const", "attr": {"value": {"tensor": {"dtype": "DT_FLOAT", "tensorShape": {"dim": [{"size": "192"}]}}}, "dtype": {"type": "DT_FLOAT"}}}, {"name": "StatefulPartitionedCall/sequential_2/efficientnet_v2_s2/StatefulPartitionedCall/StatefulPartitionedCall/StatefulPartitionedCall/blocks_4/StatefulPartitionedCall/conv2d_1/Conv2D_bn_offset", "op": "Const", "attr": {"value": {"tensor": {"dtype": "DT_FLOAT", "tensorShape": {"dim": [{"size": "48"}]}}}, "dtype": {"type": "DT_FLOAT"}}}, {"name": "StatefulPartitionedCall/sequential_2/efficientnet_v2_s2/StatefulPartitionedCall/StatefulPartitionedCall/StatefulPartitionedCall/blocks_5/StatefulPartitionedCall/conv2d/Conv2D_weights", "op": "Const", "attr": {"value": {"tensor": {"dtype": "DT_FLOAT", "tensorShape": {"dim": [{"size": "1"}, {"size": "1"}, {"size": "48"}, {"size": "192"}]}}}, "dtype": {"type": "DT_FLOAT"}}}, {"name": "StatefulPartitionedCall/sequential_2/efficientnet_v2_s2/StatefulPartitionedCall/StatefulPartitionedCall/StatefulPartitionedCall/blocks_5/StatefulPartitionedCall/conv2d/Conv2D_bn_offset", "op": "Const", "attr": {"value": {"tensor": {"dtype": "DT_FLOAT", "tensorShape": {"dim": [{"size": "192"}]}}}, "dtype": {"type": "DT_FLOAT"}}}, {"name": "StatefulPartitionedCall/sequential_2/efficientnet_v2_s2/StatefulPartitionedCall/StatefulPartitionedCall/StatefulPartitionedCall/blocks_5/StatefulPartitionedCall/depthwise_conv2d/depthwise_weights", "op": "Const", "attr": {"value": {"tensor": {"dtype": "DT_FLOAT", "tensorShape": {"dim": [{"size": "3"}, {"size": "3"}, {"size": "192"}, {"size": "1"}]}}}, "dtype": {"type": "DT_FLOAT"}}}, {"name": "StatefulPartitionedCall/sequential_2/efficientnet_v2_s2/StatefulPartitionedCall/StatefulPartitionedCall/StatefulPartitionedCall/blocks_5/StatefulPartitionedCall/depthwise_conv2d/depthwise_bn_offset", "op": "Const", "attr": {"value": {"tensor": {"dtype": "DT_FLOAT", "tensorShape": {"dim": [{"size": "192"}]}}}, "dtype": {"type": "DT_FLOAT"}}}, {"name": "StatefulPartitionedCall/sequential_2/efficientnet_v2_s2/StatefulPartitionedCall/StatefulPartitionedCall/StatefulPartitionedCall/blocks_19/StatefulPartitionedCall/conv2d/Conv2D_weights", "op": "Const", "attr": {"value": {"tensor": {"dtype": "DT_FLOAT", "tensorShape": {"dim": [{"size": "1"}, {"size": "1"}, {"size": "192"}, {"size": "1152"}]}}}, "dtype": {"type": "DT_FLOAT"}}}, {"name": "StatefulPartitionedCall/sequential_2/efficientnet_v2_s2/StatefulPartitionedCall/StatefulPartitionedCall/StatefulPartitionedCall/blocks_5/StatefulPartitionedCall/conv2d_1/Conv2D_weights", "op": "Const", "attr": {"value": {"tensor": {"dtype": "DT_FLOAT", "tensorShape": {"dim": [{"size": "1"}, {"size": "1"}, {"size": "192"}, {"size": "96"}]}}}, "dtype": {"type": "DT_FLOAT"}}}, {"name": "StatefulPartitionedCall/sequential_2/efficientnet_v2_s2/StatefulPartitionedCall/StatefulPartitionedCall/StatefulPartitionedCall/head/StatefulPartitionedCall/conv2d/Conv2D_bn_offset", "op": "Const", "attr": {"value": {"tensor": {"dtype": "DT_FLOAT", "tensorShape": {"dim": [{"size": "1280"}]}}}, "dtype": {"type": "DT_FLOAT"}}}, {"name": "StatefulPartitionedCall/sequential_2/efficientnet_v2_s2/StatefulPartitionedCall/StatefulPartitionedCall/StatefulPartitionedCall/blocks_5/StatefulPartitionedCall/conv2d_1/Conv2D_bn_offset", "op": "Const", "attr": {"value": {"tensor": {"dtype": "DT_FLOAT", "tensorShape": {"dim": [{"size": "96"}]}}}, "dtype": {"type": "DT_FLOAT"}}}, {"name": "StatefulPartitionedCall/sequential_2/efficientnet_v2_s2/StatefulPartitionedCall/StatefulPartitionedCall/StatefulPartitionedCall/blocks_6/StatefulPartitionedCall/conv2d/Conv2D_weights", "op": "Const", "attr": {"value": {"tensor": {"dtype": "DT_FLOAT", "tensorShape": {"dim": [{"size": "1"}, {"size": "1"}, {"size": "96"}, {"size": "384"}]}}}, "dtype": {"type": "DT_FLOAT"}}}, {"name": "StatefulPartitionedCall/sequential_2/efficientnet_v2_s2/StatefulPartitionedCall/StatefulPartitionedCall/StatefulPartitionedCall/blocks_19/StatefulPartitionedCall/conv2d/Conv2D_bn_offset", "op": "Const", "attr": {"value": {"tensor": {"dtype": "DT_FLOAT", "tensorShape": {"dim": [{"size": "1152"}]}}}, "dtype": {"type": "DT_FLOAT"}}}, {"name": "StatefulPartitionedCall/sequential_2/efficientnet_v2_s2/StatefulPartitionedCall/StatefulPartitionedCall/StatefulPartitionedCall/blocks_6/StatefulPartitionedCall/conv2d/Conv2D_bn_offset", "op": "Const", "attr": {"value": {"tensor": {"dtype": "DT_FLOAT", "tensorShape": {"dim": [{"size": "384"}]}}}, "dtype": {"type": "DT_FLOAT"}}}, {"name": "StatefulPartitionedCall/sequential_2/efficientnet_v2_s2/StatefulPartitionedCall/StatefulPartitionedCall/StatefulPartitionedCall/blocks_6/StatefulPartitionedCall/depthwise_conv2d/depthwise_weights", "op": "Const", "attr": {"value": {"tensor": {"dtype": "DT_FLOAT", "tensorShape": {"dim": [{"size": "3"}, {"size": "3"}, {"size": "384"}, {"size": "1"}]}}}, "dtype": {"type": "DT_FLOAT"}}}, {"name": "StatefulPartitionedCall/sequential_2/efficientnet_v2_s2/StatefulPartitionedCall/StatefulPartitionedCall/StatefulPartitionedCall/blocks_6/StatefulPartitionedCall/depthwise_conv2d/depthwise_bn_offset", "op": "Const", "attr": {"value": {"tensor": {"dtype": "DT_FLOAT", "tensorShape": {"dim": [{"size": "384"}]}}}, "dtype": {"type": "DT_FLOAT"}}}, {"name": "StatefulPartitionedCall/sequential_2/efficientnet_v2_s2/StatefulPartitionedCall/StatefulPartitionedCall/StatefulPartitionedCall/blocks_6/StatefulPartitionedCall/conv2d_1/Conv2D_weights", "op": "Const", "attr": {"value": {"tensor": {"dtype": "DT_FLOAT", "tensorShape": {"dim": [{"size": "1"}, {"size": "1"}, {"size": "384"}, {"size": "96"}]}}}, "dtype": {"type": "DT_FLOAT"}}}, {"name": "StatefulPartitionedCall/sequential_2/efficientnet_v2_s2/StatefulPartitionedCall/StatefulPartitionedCall/StatefulPartitionedCall/blocks_6/StatefulPartitionedCall/conv2d_1/Conv2D_bn_offset", "op": "Const", "attr": {"value": {"tensor": {"dtype": "DT_FLOAT", "tensorShape": {"dim": [{"size": "96"}]}}}, "dtype": {"type": "DT_FLOAT"}}}, {"name": "StatefulPartitionedCall/sequential_2/efficientnet_v2_s2/StatefulPartitionedCall/StatefulPartitionedCall/StatefulPartitionedCall/blocks_7/StatefulPartitionedCall/conv2d/Conv2D_weights", "op": "Const", "attr": {"value": {"tensor": {"dtype": "DT_FLOAT", "tensorShape": {"dim": [{"size": "1"}, {"size": "1"}, {"size": "96"}, {"size": "384"}]}}}, "dtype": {"type": "DT_FLOAT"}}}, {"name": "StatefulPartitionedCall/sequential_2/efficientnet_v2_s2/StatefulPartitionedCall/StatefulPartitionedCall/StatefulPartitionedCall/blocks_19/StatefulPartitionedCall/depthwise_conv2d/depthwise_weights", "op": "Const", "attr": {"value": {"tensor": {"dtype": "DT_FLOAT", "tensorShape": {"dim": [{"size": "3"}, {"size": "3"}, {"size": "1152"}, {"size": "1"}]}}}, "dtype": {"type": "DT_FLOAT"}}}, {"name": "StatefulPartitionedCall/sequential_2/efficientnet_v2_s2/StatefulPartitionedCall/StatefulPartitionedCall/StatefulPartitionedCall/blocks_7/StatefulPartitionedCall/conv2d/Conv2D_bn_offset", "op": "Const", "attr": {"value": {"tensor": {"dtype": "DT_FLOAT", "tensorShape": {"dim": [{"size": "384"}]}}}, "dtype": {"type": "DT_FLOAT"}}}, {"name": "StatefulPartitionedCall/sequential_2/efficientnet_v2_s2/StatefulPartitionedCall/StatefulPartitionedCall/StatefulPartitionedCall/blocks_7/StatefulPartitionedCall/depthwise_conv2d/depthwise_weights", "op": "Const", "attr": {"value": {"tensor": {"dtype": "DT_FLOAT", "tensorShape": {"dim": [{"size": "3"}, {"size": "3"}, {"size": "384"}, {"size": "1"}]}}}, "dtype": {"type": "DT_FLOAT"}}}, {"name": "StatefulPartitionedCall/sequential_2/efficientnet_v2_s2/StatefulPartitionedCall/StatefulPartitionedCall/StatefulPartitionedCall/blocks_7/StatefulPartitionedCall/depthwise_conv2d/depthwise_bn_offset", "op": "Const", "attr": {"value": {"tensor": {"dtype": "DT_FLOAT", "tensorShape": {"dim": [{"size": "384"}]}}}, "dtype": {"type": "DT_FLOAT"}}}, {"name": "StatefulPartitionedCall/sequential_2/efficientnet_v2_s2/StatefulPartitionedCall/StatefulPartitionedCall/StatefulPartitionedCall/blocks_19/StatefulPartitionedCall/depthwise_conv2d/depthwise_bn_offset", "op": "Const", "attr": {"value": {"tensor": {"dtype": "DT_FLOAT", "tensorShape": {"dim": [{"size": "1152"}]}}}, "dtype": {"type": "DT_FLOAT"}}}, {"name": "StatefulPartitionedCall/sequential_2/efficientnet_v2_s2/StatefulPartitionedCall/StatefulPartitionedCall/StatefulPartitionedCall/blocks_7/StatefulPartitionedCall/conv2d_1/Conv2D_weights", "op": "Const", "attr": {"value": {"tensor": {"dtype": "DT_FLOAT", "tensorShape": {"dim": [{"size": "1"}, {"size": "1"}, {"size": "384"}, {"size": "96"}]}}}, "dtype": {"type": "DT_FLOAT"}}}, {"name": "StatefulPartitionedCall/sequential_2/efficientnet_v2_s2/StatefulPartitionedCall/StatefulPartitionedCall/StatefulPartitionedCall/blocks_7/StatefulPartitionedCall/conv2d_1/Conv2D_bn_offset", "op": "Const", "attr": {"value": {"tensor": {"dtype": "DT_FLOAT", "tensorShape": {"dim": [{"size": "96"}]}}}, "dtype": {"type": "DT_FLOAT"}}}, {"name": "StatefulPartitionedCall/sequential_2/efficientnet_v2_s2/StatefulPartitionedCall/StatefulPartitionedCall/StatefulPartitionedCall/blocks_8/StatefulPartitionedCall/conv2d/Conv2D_weights", "op": "Const", "attr": {"value": {"tensor": {"dtype": "DT_FLOAT", "tensorShape": {"dim": [{"size": "1"}, {"size": "1"}, {"size": "96"}, {"size": "576"}]}}}, "dtype": {"type": "DT_FLOAT"}}}, {"name": "StatefulPartitionedCall/sequential_2/efficientnet_v2_s2/StatefulPartitionedCall/StatefulPartitionedCall/StatefulPartitionedCall/blocks_8/StatefulPartitionedCall/conv2d/Conv2D_bn_offset", "op": "Const", "attr": {"value": {"tensor": {"dtype": "DT_FLOAT", "tensorShape": {"dim": [{"size": "576"}]}}}, "dtype": {"type": "DT_FLOAT"}}}, {"name": "StatefulPartitionedCall/sequential_2/efficientnet_v2_s2/StatefulPartitionedCall/StatefulPartitionedCall/StatefulPartitionedCall/blocks_8/StatefulPartitionedCall/depthwise_conv2d/depthwise_weights", "op": "Const", "attr": {"value": {"tensor": {"dtype": "DT_FLOAT", "tensorShape": {"dim": [{"size": "3"}, {"size": "3"}, {"size": "576"}, {"size": "1"}]}}}, "dtype": {"type": "DT_FLOAT"}}}, {"name": "StatefulPartitionedCall/sequential_2/efficientnet_v2_s2/StatefulPartitionedCall/StatefulPartitionedCall/StatefulPartitionedCall/blocks_8/StatefulPartitionedCall/depthwise_conv2d/depthwise_bn_offset", "op": "Const", "attr": {"value": {"tensor": {"dtype": "DT_FLOAT", "tensorShape": {"dim": [{"size": "576"}]}}}, "dtype": {"type": "DT_FLOAT"}}}, {"name": "StatefulPartitionedCall/sequential_2/efficientnet_v2_s2/StatefulPartitionedCall/StatefulPartitionedCall/StatefulPartitionedCall/blocks_8/StatefulPartitionedCall/conv2d_1/Conv2D_weights", "op": "Const", "attr": {"value": {"tensor": {"dtype": "DT_FLOAT", "tensorShape": {"dim": [{"size": "1"}, {"size": "1"}, {"size": "576"}, {"size": "112"}]}}}, "dtype": {"type": "DT_FLOAT"}}}, {"name": "StatefulPartitionedCall/sequential_2/efficientnet_v2_s2/StatefulPartitionedCall/StatefulPartitionedCall/StatefulPartitionedCall/blocks_8/StatefulPartitionedCall/conv2d_1/Conv2D_bn_offset", "op": "Const", "attr": {"value": {"tensor": {"dtype": "DT_FLOAT", "tensorShape": {"dim": [{"size": "112"}]}}}, "dtype": {"type": "DT_FLOAT"}}}, {"name": "StatefulPartitionedCall/sequential_2/efficientnet_v2_s2/StatefulPartitionedCall/StatefulPartitionedCall/StatefulPartitionedCall/blocks_9/StatefulPartitionedCall/conv2d/Conv2D_weights", "op": "Const", "attr": {"value": {"tensor": {"dtype": "DT_FLOAT", "tensorShape": {"dim": [{"size": "1"}, {"size": "1"}, {"size": "112"}, {"size": "672"}]}}}, "dtype": {"type": "DT_FLOAT"}}}, {"name": "StatefulPartitionedCall/sequential_2/efficientnet_v2_s2/StatefulPartitionedCall/StatefulPartitionedCall/StatefulPartitionedCall/blocks_9/StatefulPartitionedCall/conv2d/Conv2D_bn_offset", "op": "Const", "attr": {"value": {"tensor": {"dtype": "DT_FLOAT", "tensorShape": {"dim": [{"size": "672"}]}}}, "dtype": {"type": "DT_FLOAT"}}}, {"name": "StatefulPartitionedCall/sequential_2/efficientnet_v2_s2/StatefulPartitionedCall/StatefulPartitionedCall/StatefulPartitionedCall/blocks_9/StatefulPartitionedCall/depthwise_conv2d/depthwise_weights", "op": "Const", "attr": {"value": {"tensor": {"dtype": "DT_FLOAT", "tensorShape": {"dim": [{"size": "3"}, {"size": "3"}, {"size": "672"}, {"size": "1"}]}}}, "dtype": {"type": "DT_FLOAT"}}}, {"name": "StatefulPartitionedCall/sequential_2/efficientnet_v2_s2/StatefulPartitionedCall/StatefulPartitionedCall/StatefulPartitionedCall/blocks_9/StatefulPartitionedCall/depthwise_conv2d/depthwise_bn_offset", "op": "Const", "attr": {"value": {"tensor": {"dtype": "DT_FLOAT", "tensorShape": {"dim": [{"size": "672"}]}}}, "dtype": {"type": "DT_FLOAT"}}}, {"name": "StatefulPartitionedCall/sequential_2/efficientnet_v2_s2/StatefulPartitionedCall/StatefulPartitionedCall/StatefulPartitionedCall/blocks_9/StatefulPartitionedCall/conv2d_1/Conv2D_weights", "op": "Const", "attr": {"value": {"tensor": {"dtype": "DT_FLOAT", "tensorShape": {"dim": [{"size": "1"}, {"size": "1"}, {"size": "672"}, {"size": "112"}]}}}, "dtype": {"type": "DT_FLOAT"}}}, {"name": "StatefulPartitionedCall/sequential_2/efficientnet_v2_s2/StatefulPartitionedCall/StatefulPartitionedCall/StatefulPartitionedCall/blocks_9/StatefulPartitionedCall/conv2d_1/Conv2D_bn_offset", "op": "Const", "attr": {"value": {"tensor": {"dtype": "DT_FLOAT", "tensorShape": {"dim": [{"size": "112"}]}}}, "dtype": {"type": "DT_FLOAT"}}}, {"name": "StatefulPartitionedCall/sequential_2/efficientnet_v2_s2/StatefulPartitionedCall/StatefulPartitionedCall/StatefulPartitionedCall/blocks_10/StatefulPartitionedCall/conv2d/Conv2D_weights", "op": "Const", "attr": {"value": {"tensor": {"dtype": "DT_FLOAT", "tensorShape": {"dim": [{"size": "1"}, {"size": "1"}, {"size": "112"}, {"size": "672"}]}}}, "dtype": {"type": "DT_FLOAT"}}}, {"name": "StatefulPartitionedCall/sequential_2/efficientnet_v2_s2/StatefulPartitionedCall/StatefulPartitionedCall/StatefulPartitionedCall/blocks_10/StatefulPartitionedCall/conv2d/Conv2D_bn_offset", "op": "Const", "attr": {"value": {"tensor": {"dtype": "DT_FLOAT", "tensorShape": {"dim": [{"size": "672"}]}}}, "dtype": {"type": "DT_FLOAT"}}}, {"name": "StatefulPartitionedCall/sequential_2/efficientnet_v2_s2/StatefulPartitionedCall/StatefulPartitionedCall/StatefulPartitionedCall/blocks_10/StatefulPartitionedCall/depthwise_conv2d/depthwise_weights", "op": "Const", "attr": {"value": {"tensor": {"dtype": "DT_FLOAT", "tensorShape": {"dim": [{"size": "3"}, {"size": "3"}, {"size": "672"}, {"size": "1"}]}}}, "dtype": {"type": "DT_FLOAT"}}}, {"name": "StatefulPartitionedCall/sequential_2/efficientnet_v2_s2/StatefulPartitionedCall/StatefulPartitionedCall/StatefulPartitionedCall/blocks_10/StatefulPartitionedCall/depthwise_conv2d/depthwise_bn_offset", "op": "Const", "attr": {"value": {"tensor": {"dtype": "DT_FLOAT", "tensorShape": {"dim": [{"size": "672"}]}}}, "dtype": {"type": "DT_FLOAT"}}}, {"name": "StatefulPartitionedCall/sequential_2/efficientnet_v2_s2/StatefulPartitionedCall/StatefulPartitionedCall/StatefulPartitionedCall/blocks_10/StatefulPartitionedCall/conv2d_1/Conv2D_weights", "op": "Const", "attr": {"value": {"tensor": {"dtype": "DT_FLOAT", "tensorShape": {"dim": [{"size": "1"}, {"size": "1"}, {"size": "672"}, {"size": "112"}]}}}, "dtype": {"type": "DT_FLOAT"}}}, {"name": "StatefulPartitionedCall/sequential_2/efficientnet_v2_s2/StatefulPartitionedCall/StatefulPartitionedCall/StatefulPartitionedCall/blocks_19/StatefulPartitionedCall/conv2d_1/Conv2D_weights", "op": "Const", "attr": {"value": {"tensor": {"dtype": "DT_FLOAT", "tensorShape": {"dim": [{"size": "1"}, {"size": "1"}, {"size": "1152"}, {"size": "192"}]}}}, "dtype": {"type": "DT_FLOAT"}}}, {"name": "StatefulPartitionedCall/sequential_2/efficientnet_v2_s2/StatefulPartitionedCall/StatefulPartitionedCall/StatefulPartitionedCall/blocks_10/StatefulPartitionedCall/conv2d_1/Conv2D_bn_offset", "op": "Const", "attr": {"value": {"tensor": {"dtype": "DT_FLOAT", "tensorShape": {"dim": [{"size": "112"}]}}}, "dtype": {"type": "DT_FLOAT"}}}, {"name": "StatefulPartitionedCall/sequential_2/efficientnet_v2_s2/StatefulPartitionedCall/StatefulPartitionedCall/StatefulPartitionedCall/blocks_11/StatefulPartitionedCall/conv2d/Conv2D_weights", "op": "Const", "attr": {"value": {"tensor": {"dtype": "DT_FLOAT", "tensorShape": {"dim": [{"size": "1"}, {"size": "1"}, {"size": "112"}, {"size": "672"}]}}}, "dtype": {"type": "DT_FLOAT"}}}, {"name": "StatefulPartitionedCall/sequential_2/efficientnet_v2_s2/StatefulPartitionedCall/StatefulPartitionedCall/StatefulPartitionedCall/blocks_11/StatefulPartitionedCall/conv2d/Conv2D_bn_offset", "op": "Const", "attr": {"value": {"tensor": {"dtype": "DT_FLOAT", "tensorShape": {"dim": [{"size": "672"}]}}}, "dtype": {"type": "DT_FLOAT"}}}, {"name": "StatefulPartitionedCall/sequential_2/efficientnet_v2_s2/StatefulPartitionedCall/StatefulPartitionedCall/StatefulPartitionedCall/blocks_11/StatefulPartitionedCall/depthwise_conv2d/depthwise_weights", "op": "Const", "attr": {"value": {"tensor": {"dtype": "DT_FLOAT", "tensorShape": {"dim": [{"size": "3"}, {"size": "3"}, {"size": "672"}, {"size": "1"}]}}}, "dtype": {"type": "DT_FLOAT"}}}, {"name": "StatefulPartitionedCall/sequential_2/efficientnet_v2_s2/StatefulPartitionedCall/StatefulPartitionedCall/StatefulPartitionedCall/blocks_11/StatefulPartitionedCall/depthwise_conv2d/depthwise_bn_offset", "op": "Const", "attr": {"value": {"tensor": {"dtype": "DT_FLOAT", "tensorShape": {"dim": [{"size": "672"}]}}}, "dtype": {"type": "DT_FLOAT"}}}, {"name": "StatefulPartitionedCall/sequential_2/efficientnet_v2_s2/StatefulPartitionedCall/StatefulPartitionedCall/StatefulPartitionedCall/blocks_19/StatefulPartitionedCall/conv2d_1/Conv2D_bn_offset", "op": "Const", "attr": {"value": {"tensor": {"dtype": "DT_FLOAT", "tensorShape": {"dim": [{"size": "192"}]}}}, "dtype": {"type": "DT_FLOAT"}}}, {"name": "StatefulPartitionedCall/sequential_2/efficientnet_v2_s2/StatefulPartitionedCall/StatefulPartitionedCall/StatefulPartitionedCall/blocks_11/StatefulPartitionedCall/conv2d_1/Conv2D_weights", "op": "Const", "attr": {"value": {"tensor": {"dtype": "DT_FLOAT", "tensorShape": {"dim": [{"size": "1"}, {"size": "1"}, {"size": "672"}, {"size": "112"}]}}}, "dtype": {"type": "DT_FLOAT"}}}, {"name": "StatefulPartitionedCall/sequential_2/efficientnet_v2_s2/StatefulPartitionedCall/StatefulPartitionedCall/StatefulPartitionedCall/blocks_11/StatefulPartitionedCall/conv2d_1/Conv2D_bn_offset", "op": "Const", "attr": {"value": {"tensor": {"dtype": "DT_FLOAT", "tensorShape": {"dim": [{"size": "112"}]}}}, "dtype": {"type": "DT_FLOAT"}}}, {"name": "StatefulPartitionedCall/sequential_2/efficientnet_v2_s2/StatefulPartitionedCall/StatefulPartitionedCall/StatefulPartitionedCall/blocks_12/StatefulPartitionedCall/conv2d/Conv2D_weights", "op": "Const", "attr": {"value": {"tensor": {"dtype": "DT_FLOAT", "tensorShape": {"dim": [{"size": "1"}, {"size": "1"}, {"size": "112"}, {"size": "672"}]}}}, "dtype": {"type": "DT_FLOAT"}}}, {"name": "StatefulPartitionedCall/sequential_2/efficientnet_v2_s2/StatefulPartitionedCall/StatefulPartitionedCall/StatefulPartitionedCall/blocks_20/StatefulPartitionedCall/conv2d/Conv2D_weights", "op": "Const", "attr": {"value": {"tensor": {"dtype": "DT_FLOAT", "tensorShape": {"dim": [{"size": "1"}, {"size": "1"}, {"size": "192"}, {"size": "1152"}]}}}, "dtype": {"type": "DT_FLOAT"}}}, {"name": "StatefulPartitionedCall/sequential_2/efficientnet_v2_s2/StatefulPartitionedCall/StatefulPartitionedCall/StatefulPartitionedCall/blocks_12/StatefulPartitionedCall/conv2d/Conv2D_bn_offset", "op": "Const", "attr": {"value": {"tensor": {"dtype": "DT_FLOAT", "tensorShape": {"dim": [{"size": "672"}]}}}, "dtype": {"type": "DT_FLOAT"}}}, {"name": "StatefulPartitionedCall/sequential_2/efficientnet_v2_s2/StatefulPartitionedCall/StatefulPartitionedCall/StatefulPartitionedCall/blocks_12/StatefulPartitionedCall/depthwise_conv2d/depthwise_weights", "op": "Const", "attr": {"value": {"tensor": {"dtype": "DT_FLOAT", "tensorShape": {"dim": [{"size": "3"}, {"size": "3"}, {"size": "672"}, {"size": "1"}]}}}, "dtype": {"type": "DT_FLOAT"}}}, {"name": "StatefulPartitionedCall/sequential_2/efficientnet_v2_s2/StatefulPartitionedCall/StatefulPartitionedCall/StatefulPartitionedCall/blocks_12/StatefulPartitionedCall/depthwise_conv2d/depthwise_bn_offset", "op": "Const", "attr": {"value": {"tensor": {"dtype": "DT_FLOAT", "tensorShape": {"dim": [{"size": "672"}]}}}, "dtype": {"type": "DT_FLOAT"}}}, {"name": "StatefulPartitionedCall/sequential_2/efficientnet_v2_s2/StatefulPartitionedCall/StatefulPartitionedCall/StatefulPartitionedCall/blocks_20/StatefulPartitionedCall/conv2d/Conv2D_bn_offset", "op": "Const", "attr": {"value": {"tensor": {"dtype": "DT_FLOAT", "tensorShape": {"dim": [{"size": "1152"}]}}}, "dtype": {"type": "DT_FLOAT"}}}, {"name": "StatefulPartitionedCall/sequential_2/efficientnet_v2_s2/StatefulPartitionedCall/StatefulPartitionedCall/StatefulPartitionedCall/blocks_12/StatefulPartitionedCall/conv2d_1/Conv2D_weights", "op": "Const", "attr": {"value": {"tensor": {"dtype": "DT_FLOAT", "tensorShape": {"dim": [{"size": "1"}, {"size": "1"}, {"size": "672"}, {"size": "112"}]}}}, "dtype": {"type": "DT_FLOAT"}}}, {"name": "StatefulPartitionedCall/sequential_2/efficientnet_v2_s2/StatefulPartitionedCall/StatefulPartitionedCall/StatefulPartitionedCall/blocks_12/StatefulPartitionedCall/conv2d_1/Conv2D_bn_offset", "op": "Const", "attr": {"value": {"tensor": {"dtype": "DT_FLOAT", "tensorShape": {"dim": [{"size": "112"}]}}}, "dtype": {"type": "DT_FLOAT"}}}, {"name": "StatefulPartitionedCall/sequential_2/efficientnet_v2_s2/StatefulPartitionedCall/StatefulPartitionedCall/StatefulPartitionedCall/blocks_13/StatefulPartitionedCall/conv2d/Conv2D_weights", "op": "Const", "attr": {"value": {"tensor": {"dtype": "DT_FLOAT", "tensorShape": {"dim": [{"size": "1"}, {"size": "1"}, {"size": "112"}, {"size": "672"}]}}}, "dtype": {"type": "DT_FLOAT"}}}, {"name": "StatefulPartitionedCall/sequential_2/efficientnet_v2_s2/StatefulPartitionedCall/StatefulPartitionedCall/StatefulPartitionedCall/blocks_13/StatefulPartitionedCall/conv2d/Conv2D_bn_offset", "op": "Const", "attr": {"value": {"tensor": {"dtype": "DT_FLOAT", "tensorShape": {"dim": [{"size": "672"}]}}}, "dtype": {"type": "DT_FLOAT"}}}, {"name": "StatefulPartitionedCall/sequential_2/efficientnet_v2_s2/StatefulPartitionedCall/StatefulPartitionedCall/StatefulPartitionedCall/blocks_13/StatefulPartitionedCall/depthwise_conv2d/depthwise_weights", "op": "Const", "attr": {"value": {"tensor": {"dtype": "DT_FLOAT", "tensorShape": {"dim": [{"size": "3"}, {"size": "3"}, {"size": "672"}, {"size": "1"}]}}}, "dtype": {"type": "DT_FLOAT"}}}, {"name": "StatefulPartitionedCall/sequential_2/efficientnet_v2_s2/StatefulPartitionedCall/StatefulPartitionedCall/StatefulPartitionedCall/blocks_13/StatefulPartitionedCall/depthwise_conv2d/depthwise_bn_offset", "op": "Const", "attr": {"value": {"tensor": {"dtype": "DT_FLOAT", "tensorShape": {"dim": [{"size": "672"}]}}}, "dtype": {"type": "DT_FLOAT"}}}, {"name": "StatefulPartitionedCall/sequential_2/efficientnet_v2_s2/StatefulPartitionedCall/StatefulPartitionedCall/StatefulPartitionedCall/blocks_20/StatefulPartitionedCall/depthwise_conv2d/depthwise_weights", "op": "Const", "attr": {"value": {"tensor": {"dtype": "DT_FLOAT", "tensorShape": {"dim": [{"size": "3"}, {"size": "3"}, {"size": "1152"}, {"size": "1"}]}}}, "dtype": {"type": "DT_FLOAT"}}}, {"name": "StatefulPartitionedCall/sequential_2/efficientnet_v2_s2/StatefulPartitionedCall/StatefulPartitionedCall/StatefulPartitionedCall/blocks_13/StatefulPartitionedCall/conv2d_1/Conv2D_weights", "op": "Const", "attr": {"value": {"tensor": {"dtype": "DT_FLOAT", "tensorShape": {"dim": [{"size": "1"}, {"size": "1"}, {"size": "672"}, {"size": "192"}]}}}, "dtype": {"type": "DT_FLOAT"}}}, {"name": "StatefulPartitionedCall/sequential_2/efficientnet_v2_s2/StatefulPartitionedCall/StatefulPartitionedCall/StatefulPartitionedCall/blocks_13/StatefulPartitionedCall/conv2d_1/Conv2D_bn_offset", "op": "Const", "attr": {"value": {"tensor": {"dtype": "DT_FLOAT", "tensorShape": {"dim": [{"size": "192"}]}}}, "dtype": {"type": "DT_FLOAT"}}}, {"name": "StatefulPartitionedCall/sequential_2/efficientnet_v2_s2/StatefulPartitionedCall/StatefulPartitionedCall/StatefulPartitionedCall/blocks_14/StatefulPartitionedCall/conv2d/Conv2D_weights", "op": "Const", "attr": {"value": {"tensor": {"dtype": "DT_FLOAT", "tensorShape": {"dim": [{"size": "1"}, {"size": "1"}, {"size": "192"}, {"size": "1152"}]}}}, "dtype": {"type": "DT_FLOAT"}}}, {"name": "StatefulPartitionedCall/sequential_2/efficientnet_v2_s2/StatefulPartitionedCall/StatefulPartitionedCall/StatefulPartitionedCall/blocks_20/StatefulPartitionedCall/depthwise_conv2d/depthwise_bn_offset", "op": "Const", "attr": {"value": {"tensor": {"dtype": "DT_FLOAT", "tensorShape": {"dim": [{"size": "1152"}]}}}, "dtype": {"type": "DT_FLOAT"}}}, {"name": "StatefulPartitionedCall/sequential_2/efficientnet_v2_s2/StatefulPartitionedCall/StatefulPartitionedCall/StatefulPartitionedCall/blocks_14/StatefulPartitionedCall/conv2d/Conv2D_bn_offset", "op": "Const", "attr": {"value": {"tensor": {"dtype": "DT_FLOAT", "tensorShape": {"dim": [{"size": "1152"}]}}}, "dtype": {"type": "DT_FLOAT"}}}, {"name": "StatefulPartitionedCall/sequential_2/efficientnet_v2_s2/StatefulPartitionedCall/StatefulPartitionedCall/StatefulPartitionedCall/blocks_14/StatefulPartitionedCall/depthwise_conv2d/depthwise_weights", "op": "Const", "attr": {"value": {"tensor": {"dtype": "DT_FLOAT", "tensorShape": {"dim": [{"size": "3"}, {"size": "3"}, {"size": "1152"}, {"size": "1"}]}}}, "dtype": {"type": "DT_FLOAT"}}}, {"name": "StatefulPartitionedCall/sequential_2/efficientnet_v2_s2/StatefulPartitionedCall/StatefulPartitionedCall/StatefulPartitionedCall/blocks_14/StatefulPartitionedCall/depthwise_conv2d/depthwise_bn_offset", "op": "Const", "attr": {"value": {"tensor": {"dtype": "DT_FLOAT", "tensorShape": {"dim": [{"size": "1152"}]}}}, "dtype": {"type": "DT_FLOAT"}}}, {"name": "StatefulPartitionedCall/sequential_2/efficientnet_v2_s2/StatefulPartitionedCall/StatefulPartitionedCall/StatefulPartitionedCall/blocks_14/StatefulPartitionedCall/conv2d_1/Conv2D_weights", "op": "Const", "attr": {"value": {"tensor": {"dtype": "DT_FLOAT", "tensorShape": {"dim": [{"size": "1"}, {"size": "1"}, {"size": "1152"}, {"size": "192"}]}}}, "dtype": {"type": "DT_FLOAT"}}}, {"name": "StatefulPartitionedCall/sequential_2/efficientnet_v2_s2/StatefulPartitionedCall/StatefulPartitionedCall/StatefulPartitionedCall/blocks_14/StatefulPartitionedCall/conv2d_1/Conv2D_bn_offset", "op": "Const", "attr": {"value": {"tensor": {"dtype": "DT_FLOAT", "tensorShape": {"dim": [{"size": "192"}]}}}, "dtype": {"type": "DT_FLOAT"}}}, {"name": "StatefulPartitionedCall/sequential_2/efficientnet_v2_s2/StatefulPartitionedCall/StatefulPartitionedCall/StatefulPartitionedCall/blocks_15/StatefulPartitionedCall/conv2d/Conv2D_weights", "op": "Const", "attr": {"value": {"tensor": {"dtype": "DT_FLOAT", "tensorShape": {"dim": [{"size": "1"}, {"size": "1"}, {"size": "192"}, {"size": "1152"}]}}}, "dtype": {"type": "DT_FLOAT"}}}, {"name": "StatefulPartitionedCall/sequential_2/efficientnet_v2_s2/StatefulPartitionedCall/StatefulPartitionedCall/StatefulPartitionedCall/blocks_15/StatefulPartitionedCall/conv2d/Conv2D_bn_offset", "op": "Const", "attr": {"value": {"tensor": {"dtype": "DT_FLOAT", "tensorShape": {"dim": [{"size": "1152"}]}}}, "dtype": {"type": "DT_FLOAT"}}}, {"name": "StatefulPartitionedCall/sequential_2/efficientnet_v2_s2/StatefulPartitionedCall/StatefulPartitionedCall/StatefulPartitionedCall/blocks_15/StatefulPartitionedCall/depthwise_conv2d/depthwise_weights", "op": "Const", "attr": {"value": {"tensor": {"dtype": "DT_FLOAT", "tensorShape": {"dim": [{"size": "3"}, {"size": "3"}, {"size": "1152"}, {"size": "1"}]}}}, "dtype": {"type": "DT_FLOAT"}}}, {"name": "StatefulPartitionedCall/sequential_2/efficientnet_v2_s2/StatefulPartitionedCall/StatefulPartitionedCall/StatefulPartitionedCall/blocks_15/StatefulPartitionedCall/depthwise_conv2d/depthwise_bn_offset", "op": "Const", "attr": {"value": {"tensor": {"dtype": "DT_FLOAT", "tensorShape": {"dim": [{"size": "1152"}]}}}, "dtype": {"type": "DT_FLOAT"}}}, {"name": "StatefulPartitionedCall/sequential_2/efficientnet_v2_s2/StatefulPartitionedCall/StatefulPartitionedCall/StatefulPartitionedCall/blocks_15/StatefulPartitionedCall/conv2d_1/Conv2D_weights", "op": "Const", "attr": {"value": {"tensor": {"dtype": "DT_FLOAT", "tensorShape": {"dim": [{"size": "1"}, {"size": "1"}, {"size": "1152"}, {"size": "192"}]}}}, "dtype": {"type": "DT_FLOAT"}}}, {"name": "StatefulPartitionedCall/sequential_2/efficientnet_v2_s2/StatefulPartitionedCall/StatefulPartitionedCall/StatefulPartitionedCall/blocks_15/StatefulPartitionedCall/conv2d_1/Conv2D_bn_offset", "op": "Const", "attr": {"value": {"tensor": {"dtype": "DT_FLOAT", "tensorShape": {"dim": [{"size": "192"}]}}}, "dtype": {"type": "DT_FLOAT"}}}, {"name": "StatefulPartitionedCall/sequential_2/efficientnet_v2_s2/StatefulPartitionedCall/StatefulPartitionedCall/StatefulPartitionedCall/blocks_16/StatefulPartitionedCall/conv2d/Conv2D_weights", "op": "Const", "attr": {"value": {"tensor": {"dtype": "DT_FLOAT", "tensorShape": {"dim": [{"size": "1"}, {"size": "1"}, {"size": "192"}, {"size": "1152"}]}}}, "dtype": {"type": "DT_FLOAT"}}}, {"name": "StatefulPartitionedCall/sequential_2/efficientnet_v2_s2/StatefulPartitionedCall/StatefulPartitionedCall/StatefulPartitionedCall/blocks_16/StatefulPartitionedCall/conv2d/Conv2D_bn_offset", "op": "Const", "attr": {"value": {"tensor": {"dtype": "DT_FLOAT", "tensorShape": {"dim": [{"size": "1152"}]}}}, "dtype": {"type": "DT_FLOAT"}}}, {"name": "StatefulPartitionedCall/sequential_2/efficientnet_v2_s2/StatefulPartitionedCall/StatefulPartitionedCall/StatefulPartitionedCall/blocks_16/StatefulPartitionedCall/depthwise_conv2d/depthwise_weights", "op": "Const", "attr": {"value": {"tensor": {"dtype": "DT_FLOAT", "tensorShape": {"dim": [{"size": "3"}, {"size": "3"}, {"size": "1152"}, {"size": "1"}]}}}, "dtype": {"type": "DT_FLOAT"}}}, {"name": "StatefulPartitionedCall/sequential_2/efficientnet_v2_s2/StatefulPartitionedCall/StatefulPartitionedCall/StatefulPartitionedCall/blocks_16/StatefulPartitionedCall/depthwise_conv2d/depthwise_bn_offset", "op": "Const", "attr": {"value": {"tensor": {"dtype": "DT_FLOAT", "tensorShape": {"dim": [{"size": "1152"}]}}}, "dtype": {"type": "DT_FLOAT"}}}, {"name": "StatefulPartitionedCall/sequential_2/efficientnet_v2_s2/StatefulPartitionedCall/StatefulPartitionedCall/StatefulPartitionedCall/blocks_16/StatefulPartitionedCall/conv2d_1/Conv2D_weights", "op": "Const", "attr": {"value": {"tensor": {"dtype": "DT_FLOAT", "tensorShape": {"dim": [{"size": "1"}, {"size": "1"}, {"size": "1152"}, {"size": "192"}]}}}, "dtype": {"type": "DT_FLOAT"}}}, {"name": "StatefulPartitionedCall/sequential_2/efficientnet_v2_s2/StatefulPartitionedCall/StatefulPartitionedCall/StatefulPartitionedCall/blocks_16/StatefulPartitionedCall/conv2d_1/Conv2D_bn_offset", "op": "Const", "attr": {"value": {"tensor": {"dtype": "DT_FLOAT", "tensorShape": {"dim": [{"size": "192"}]}}}, "dtype": {"type": "DT_FLOAT"}}}, {"name": "StatefulPartitionedCall/sequential_2/efficientnet_v2_s2/StatefulPartitionedCall/StatefulPartitionedCall/StatefulPartitionedCall/blocks_17/StatefulPartitionedCall/conv2d/Conv2D_weights", "op": "Const", "attr": {"value": {"tensor": {"dtype": "DT_FLOAT", "tensorShape": {"dim": [{"size": "1"}, {"size": "1"}, {"size": "192"}, {"size": "1152"}]}}}, "dtype": {"type": "DT_FLOAT"}}}, {"name": "StatefulPartitionedCall/sequential_2/efficientnet_v2_s2/StatefulPartitionedCall/StatefulPartitionedCall/StatefulPartitionedCall/blocks_17/StatefulPartitionedCall/conv2d/Conv2D_bn_offset", "op": "Const", "attr": {"value": {"tensor": {"dtype": "DT_FLOAT", "tensorShape": {"dim": [{"size": "1152"}]}}}, "dtype": {"type": "DT_FLOAT"}}}, {"name": "StatefulPartitionedCall/sequential_2/efficientnet_v2_s2/StatefulPartitionedCall/StatefulPartitionedCall/StatefulPartitionedCall/blocks_17/StatefulPartitionedCall/depthwise_conv2d/depthwise_weights", "op": "Const", "attr": {"value": {"tensor": {"dtype": "DT_FLOAT", "tensorShape": {"dim": [{"size": "3"}, {"size": "3"}, {"size": "1152"}, {"size": "1"}]}}}, "dtype": {"type": "DT_FLOAT"}}}, {"name": "StatefulPartitionedCall/sequential_2/efficientnet_v2_s2/StatefulPartitionedCall/StatefulPartitionedCall/StatefulPartitionedCall/blocks_17/StatefulPartitionedCall/depthwise_conv2d/depthwise_bn_offset", "op": "Const", "attr": {"value": {"tensor": {"dtype": "DT_FLOAT", "tensorShape": {"dim": [{"size": "1152"}]}}}, "dtype": {"type": "DT_FLOAT"}}}, {"name": "StatefulPartitionedCall/sequential_2/efficientnet_v2_s2/StatefulPartitionedCall/StatefulPartitionedCall/StatefulPartitionedCall/blocks_20/StatefulPartitionedCall/conv2d_1/Conv2D_weights", "op": "Const", "attr": {"value": {"tensor": {"dtype": "DT_FLOAT", "tensorShape": {"dim": [{"size": "1"}, {"size": "1"}, {"size": "1152"}, {"size": "192"}]}}}, "dtype": {"type": "DT_FLOAT"}}}, {"name": "StatefulPartitionedCall/sequential_2/efficientnet_v2_s2/StatefulPartitionedCall/StatefulPartitionedCall/StatefulPartitionedCall/blocks_17/StatefulPartitionedCall/conv2d_1/Conv2D_weights", "op": "Const", "attr": {"value": {"tensor": {"dtype": "DT_FLOAT", "tensorShape": {"dim": [{"size": "1"}, {"size": "1"}, {"size": "1152"}, {"size": "192"}]}}}, "dtype": {"type": "DT_FLOAT"}}}, {"name": "StatefulPartitionedCall/sequential_2/efficientnet_v2_s2/StatefulPartitionedCall/StatefulPartitionedCall/StatefulPartitionedCall/blocks_20/StatefulPartitionedCall/conv2d_1/Conv2D_bn_offset", "op": "Const", "attr": {"value": {"tensor": {"dtype": "DT_FLOAT", "tensorShape": {"dim": [{"size": "192"}]}}}, "dtype": {"type": "DT_FLOAT"}}}, {"name": "StatefulPartitionedCall/sequential_2/efficientnet_v2_s2/StatefulPartitionedCall/StatefulPartitionedCall/StatefulPartitionedCall/blocks_17/StatefulPartitionedCall/conv2d_1/Conv2D_bn_offset", "op": "Const", "attr": {"value": {"tensor": {"dtype": "DT_FLOAT", "tensorShape": {"dim": [{"size": "192"}]}}}, "dtype": {"type": "DT_FLOAT"}}}, {"name": "StatefulPartitionedCall/sequential_2/efficientnet_v2_s2/StatefulPartitionedCall/StatefulPartitionedCall/StatefulPartitionedCall/blocks_18/StatefulPartitionedCall/conv2d/Conv2D_weights", "op": "Const", "attr": {"value": {"tensor": {"dtype": "DT_FLOAT", "tensorShape": {"dim": [{"size": "1"}, {"size": "1"}, {"size": "192"}, {"size": "1152"}]}}}, "dtype": {"type": "DT_FLOAT"}}}, {"name": "StatefulPartitionedCall/sequential_2/efficientnet_v2_s2/StatefulPartitionedCall/StatefulPartitionedCall/StatefulPartitionedCall/blocks_18/StatefulPartitionedCall/conv2d/Conv2D_bn_offset", "op": "Const", "attr": {"value": {"tensor": {"dtype": "DT_FLOAT", "tensorShape": {"dim": [{"size": "1152"}]}}}, "dtype": {"type": "DT_FLOAT"}}}, {"name": "StatefulPartitionedCall/sequential_2/efficientnet_v2_s2/StatefulPartitionedCall/StatefulPartitionedCall/StatefulPartitionedCall/blocks_18/StatefulPartitionedCall/depthwise_conv2d/depthwise_weights", "op": "Const", "attr": {"value": {"tensor": {"dtype": "DT_FLOAT", "tensorShape": {"dim": [{"size": "3"}, {"size": "3"}, {"size": "1152"}, {"size": "1"}]}}}, "dtype": {"type": "DT_FLOAT"}}}, {"name": "StatefulPartitionedCall/sequential_2/efficientnet_v2_s2/StatefulPartitionedCall/StatefulPartitionedCall/StatefulPartitionedCall/blocks_18/StatefulPartitionedCall/depthwise_conv2d/depthwise_bn_offset", "op": "Const", "attr": {"value": {"tensor": {"dtype": "DT_FLOAT", "tensorShape": {"dim": [{"size": "1152"}]}}}, "dtype": {"type": "DT_FLOAT"}}}, {"name": "StatefulPartitionedCall/sequential_2/sequential/resizing/resize/ResizeBilinear", "op": "ResizeBilinear", "input": ["sequential_input", "StatefulPartitionedCall/sequential_2/sequential/resizing/resize/size"], "attr": {"T": {"type": "DT_FLOAT"}, "align_corners": {"b": false}, "half_pixel_centers": {"b": true}}}, {"name": "StatefulPartitionedCall/sequential_2/efficientnet_v2_s2/StatefulPartitionedCall/StatefulPartitionedCall/StatefulPartitionedCall/blocks_20/StatefulPartitionedCall/se/Mean/reduction_indices", "op": "Const", "input": ["^StatefulPartitionedCall/sequential_2/sequential/resizing/resize/ResizeBilinear"], "attr": {"value": {"tensor": {"dtype": "DT_INT32", "tensorShape": {"dim": [{"size": "2"}]}}}, "dtype": {"type": "DT_INT32"}}}, {"name": "StatefulPartitionedCall/sequential_2/efficientnet_v2_s2/StatefulPartitionedCall/StatefulPartitionedCall/StatefulPartitionedCall/blocks_20/StatefulPartitionedCall/se/conv2d/Conv2D/ReadVariableOp", "op": "Const", "input": ["^StatefulPartitionedCall/sequential_2/sequential/resizing/resize/ResizeBilinear"], "attr": {"value": {"tensor": {"dtype": "DT_FLOAT", "tensorShape": {"dim": [{"size": "1"}, {"size": "1"}, {"size": "1152"}, {"size": "48"}]}}}, "dtype": {"type": "DT_FLOAT"}}}, {"name": "StatefulPartitionedCall/sequential_2/efficientnet_v2_s2/StatefulPartitionedCall/StatefulPartitionedCall/StatefulPartitionedCall/blocks_20/StatefulPartitionedCall/se/conv2d/BiasAdd/ReadVariableOp", "op": "Const", "input": ["^StatefulPartitionedCall/sequential_2/sequential/resizing/resize/ResizeBilinear"], "attr": {"value": {"tensor": {"dtype": "DT_FLOAT", "tensorShape": {"dim": [{"size": "48"}]}}}, "dtype": {"type": "DT_FLOAT"}}}, {"name": "StatefulPartitionedCall/sequential_2/efficientnet_v2_s2/StatefulPartitionedCall/StatefulPartitionedCall/StatefulPartitionedCall/blocks_20/StatefulPartitionedCall/se/conv2d_1/Conv2D/ReadVariableOp", "op": "Const", "input": ["^StatefulPartitionedCall/sequential_2/sequential/resizing/resize/ResizeBilinear"], "attr": {"value": {"tensor": {"dtype": "DT_FLOAT", "tensorShape": {"dim": [{"size": "1"}, {"size": "1"}, {"size": "48"}, {"size": "1152"}]}}}, "dtype": {"type": "DT_FLOAT"}}}, {"name": "StatefulPartitionedCall/sequential_2/efficientnet_v2_s2/StatefulPartitionedCall/StatefulPartitionedCall/StatefulPartitionedCall/blocks_20/StatefulPartitionedCall/se/conv2d_1/BiasAdd/ReadVariableOp", "op": "Const", "input": ["^StatefulPartitionedCall/sequential_2/sequential/resizing/resize/ResizeBilinear"], "attr": {"value": {"tensor": {"dtype": "DT_FLOAT", "tensorShape": {"dim": [{"size": "1152"}]}}}, "dtype": {"type": "DT_FLOAT"}}}, {"name": "StatefulPartitionedCall/sequential_2/efficientnet_v2_s2/StatefulPartitionedCall/StatefulPartitionedCall/StatefulPartitionedCall/blocks_19/StatefulPartitionedCall/se/Mean/reduction_indices", "op": "Const", "input": ["^StatefulPartitionedCall/sequential_2/sequential/resizing/resize/ResizeBilinear"], "attr": {"value": {"tensor": {"dtype": "DT_INT32", "tensorShape": {"dim": [{"size": "2"}]}}}, "dtype": {"type": "DT_INT32"}}}, {"name": "StatefulPartitionedCall/sequential_2/efficientnet_v2_s2/StatefulPartitionedCall/StatefulPartitionedCall/StatefulPartitionedCall/blocks_19/StatefulPartitionedCall/se/conv2d/Conv2D/ReadVariableOp", "op": "Const", "input": ["^StatefulPartitionedCall/sequential_2/sequential/resizing/resize/ResizeBilinear"], "attr": {"value": {"tensor": {"dtype": "DT_FLOAT", "tensorShape": {"dim": [{"size": "1"}, {"size": "1"}, {"size": "1152"}, {"size": "48"}]}}}, "dtype": {"type": "DT_FLOAT"}}}, {"name": "StatefulPartitionedCall/sequential_2/efficientnet_v2_s2/StatefulPartitionedCall/StatefulPartitionedCall/StatefulPartitionedCall/blocks_19/StatefulPartitionedCall/se/conv2d/BiasAdd/ReadVariableOp", "op": "Const", "input": ["^StatefulPartitionedCall/sequential_2/sequential/resizing/resize/ResizeBilinear"], "attr": {"value": {"tensor": {"dtype": "DT_FLOAT", "tensorShape": {"dim": [{"size": "48"}]}}}, "dtype": {"type": "DT_FLOAT"}}}, {"name": "StatefulPartitionedCall/sequential_2/efficientnet_v2_s2/StatefulPartitionedCall/StatefulPartitionedCall/StatefulPartitionedCall/blocks_19/StatefulPartitionedCall/se/conv2d_1/Conv2D/ReadVariableOp", "op": "Const", "input": ["^StatefulPartitionedCall/sequential_2/sequential/resizing/resize/ResizeBilinear"], "attr": {"value": {"tensor": {"dtype": "DT_FLOAT", "tensorShape": {"dim": [{"size": "1"}, {"size": "1"}, {"size": "48"}, {"size": "1152"}]}}}, "dtype": {"type": "DT_FLOAT"}}}, {"name": "StatefulPartitionedCall/sequential_2/efficientnet_v2_s2/StatefulPartitionedCall/StatefulPartitionedCall/StatefulPartitionedCall/blocks_19/StatefulPartitionedCall/se/conv2d_1/BiasAdd/ReadVariableOp", "op": "Const", "input": ["^StatefulPartitionedCall/sequential_2/sequential/resizing/resize/ResizeBilinear"], "attr": {"value": {"tensor": {"dtype": "DT_FLOAT", "tensorShape": {"dim": [{"size": "1152"}]}}}, "dtype": {"type": "DT_FLOAT"}}}, {"name": "StatefulPartitionedCall/sequential_2/efficientnet_v2_s2/StatefulPartitionedCall/StatefulPartitionedCall/StatefulPartitionedCall/blocks_18/StatefulPartitionedCall/se/Mean/reduction_indices", "op": "Const", "input": ["^StatefulPartitionedCall/sequential_2/sequential/resizing/resize/ResizeBilinear"], "attr": {"value": {"tensor": {"dtype": "DT_INT32", "tensorShape": {"dim": [{"size": "2"}]}}}, "dtype": {"type": "DT_INT32"}}}, {"name": "StatefulPartitionedCall/sequential_2/efficientnet_v2_s2/StatefulPartitionedCall/StatefulPartitionedCall/StatefulPartitionedCall/blocks_18/StatefulPartitionedCall/se/conv2d/Conv2D/ReadVariableOp", "op": "Const", "input": ["^StatefulPartitionedCall/sequential_2/sequential/resizing/resize/ResizeBilinear"], "attr": {"value": {"tensor": {"dtype": "DT_FLOAT", "tensorShape": {"dim": [{"size": "1"}, {"size": "1"}, {"size": "1152"}, {"size": "48"}]}}}, "dtype": {"type": "DT_FLOAT"}}}, {"name": "StatefulPartitionedCall/sequential_2/efficientnet_v2_s2/StatefulPartitionedCall/StatefulPartitionedCall/StatefulPartitionedCall/blocks_18/StatefulPartitionedCall/se/conv2d/BiasAdd/ReadVariableOp", "op": "Const", "input": ["^StatefulPartitionedCall/sequential_2/sequential/resizing/resize/ResizeBilinear"], "attr": {"value": {"tensor": {"dtype": "DT_FLOAT", "tensorShape": {"dim": [{"size": "48"}]}}}, "dtype": {"type": "DT_FLOAT"}}}, {"name": "StatefulPartitionedCall/sequential_2/efficientnet_v2_s2/StatefulPartitionedCall/StatefulPartitionedCall/StatefulPartitionedCall/blocks_18/StatefulPartitionedCall/se/conv2d_1/Conv2D/ReadVariableOp", "op": "Const", "input": ["^StatefulPartitionedCall/sequential_2/sequential/resizing/resize/ResizeBilinear"], "attr": {"value": {"tensor": {"dtype": "DT_FLOAT", "tensorShape": {"dim": [{"size": "1"}, {"size": "1"}, {"size": "48"}, {"size": "1152"}]}}}, "dtype": {"type": "DT_FLOAT"}}}, {"name": "StatefulPartitionedCall/sequential_2/efficientnet_v2_s2/StatefulPartitionedCall/StatefulPartitionedCall/StatefulPartitionedCall/blocks_18/StatefulPartitionedCall/se/conv2d_1/BiasAdd/ReadVariableOp", "op": "Const", "input": ["^StatefulPartitionedCall/sequential_2/sequential/resizing/resize/ResizeBilinear"], "attr": {"value": {"tensor": {"dtype": "DT_FLOAT", "tensorShape": {"dim": [{"size": "1152"}]}}}, "dtype": {"type": "DT_FLOAT"}}}, {"name": "StatefulPartitionedCall/sequential_2/efficientnet_v2_s2/StatefulPartitionedCall/StatefulPartitionedCall/StatefulPartitionedCall/blocks_17/StatefulPartitionedCall/se/Mean/reduction_indices", "op": "Const", "input": ["^StatefulPartitionedCall/sequential_2/sequential/resizing/resize/ResizeBilinear"], "attr": {"value": {"tensor": {"dtype": "DT_INT32", "tensorShape": {"dim": [{"size": "2"}]}}}, "dtype": {"type": "DT_INT32"}}}, {"name": "StatefulPartitionedCall/sequential_2/efficientnet_v2_s2/StatefulPartitionedCall/StatefulPartitionedCall/StatefulPartitionedCall/blocks_17/StatefulPartitionedCall/se/conv2d/Conv2D/ReadVariableOp", "op": "Const", "input": ["^StatefulPartitionedCall/sequential_2/sequential/resizing/resize/ResizeBilinear"], "attr": {"value": {"tensor": {"dtype": "DT_FLOAT", "tensorShape": {"dim": [{"size": "1"}, {"size": "1"}, {"size": "1152"}, {"size": "48"}]}}}, "dtype": {"type": "DT_FLOAT"}}}, {"name": "StatefulPartitionedCall/sequential_2/efficientnet_v2_s2/StatefulPartitionedCall/StatefulPartitionedCall/StatefulPartitionedCall/blocks_17/StatefulPartitionedCall/se/conv2d/BiasAdd/ReadVariableOp", "op": "Const", "input": ["^StatefulPartitionedCall/sequential_2/sequential/resizing/resize/ResizeBilinear"], "attr": {"value": {"tensor": {"dtype": "DT_FLOAT", "tensorShape": {"dim": [{"size": "48"}]}}}, "dtype": {"type": "DT_FLOAT"}}}, {"name": "StatefulPartitionedCall/sequential_2/efficientnet_v2_s2/StatefulPartitionedCall/StatefulPartitionedCall/StatefulPartitionedCall/blocks_17/StatefulPartitionedCall/se/conv2d_1/Conv2D/ReadVariableOp", "op": "Const", "input": ["^StatefulPartitionedCall/sequential_2/sequential/resizing/resize/ResizeBilinear"], "attr": {"value": {"tensor": {"dtype": "DT_FLOAT", "tensorShape": {"dim": [{"size": "1"}, {"size": "1"}, {"size": "48"}, {"size": "1152"}]}}}, "dtype": {"type": "DT_FLOAT"}}}, {"name": "StatefulPartitionedCall/sequential_2/efficientnet_v2_s2/StatefulPartitionedCall/StatefulPartitionedCall/StatefulPartitionedCall/blocks_17/StatefulPartitionedCall/se/conv2d_1/BiasAdd/ReadVariableOp", "op": "Const", "input": ["^StatefulPartitionedCall/sequential_2/sequential/resizing/resize/ResizeBilinear"], "attr": {"value": {"tensor": {"dtype": "DT_FLOAT", "tensorShape": {"dim": [{"size": "1152"}]}}}, "dtype": {"type": "DT_FLOAT"}}}, {"name": "StatefulPartitionedCall/sequential_2/efficientnet_v2_s2/StatefulPartitionedCall/StatefulPartitionedCall/StatefulPartitionedCall/blocks_16/StatefulPartitionedCall/se/Mean/reduction_indices", "op": "Const", "input": ["^StatefulPartitionedCall/sequential_2/sequential/resizing/resize/ResizeBilinear"], "attr": {"value": {"tensor": {"dtype": "DT_INT32", "tensorShape": {"dim": [{"size": "2"}]}}}, "dtype": {"type": "DT_INT32"}}}, {"name": "StatefulPartitionedCall/sequential_2/efficientnet_v2_s2/StatefulPartitionedCall/StatefulPartitionedCall/StatefulPartitionedCall/blocks_16/StatefulPartitionedCall/se/conv2d/Conv2D/ReadVariableOp", "op": "Const", "input": ["^StatefulPartitionedCall/sequential_2/sequential/resizing/resize/ResizeBilinear"], "attr": {"value": {"tensor": {"dtype": "DT_FLOAT", "tensorShape": {"dim": [{"size": "1"}, {"size": "1"}, {"size": "1152"}, {"size": "48"}]}}}, "dtype": {"type": "DT_FLOAT"}}}, {"name": "StatefulPartitionedCall/sequential_2/efficientnet_v2_s2/StatefulPartitionedCall/StatefulPartitionedCall/StatefulPartitionedCall/blocks_16/StatefulPartitionedCall/se/conv2d/BiasAdd/ReadVariableOp", "op": "Const", "input": ["^StatefulPartitionedCall/sequential_2/sequential/resizing/resize/ResizeBilinear"], "attr": {"value": {"tensor": {"dtype": "DT_FLOAT", "tensorShape": {"dim": [{"size": "48"}]}}}, "dtype": {"type": "DT_FLOAT"}}}, {"name": "StatefulPartitionedCall/sequential_2/efficientnet_v2_s2/StatefulPartitionedCall/StatefulPartitionedCall/StatefulPartitionedCall/blocks_16/StatefulPartitionedCall/se/conv2d_1/Conv2D/ReadVariableOp", "op": "Const", "input": ["^StatefulPartitionedCall/sequential_2/sequential/resizing/resize/ResizeBilinear"], "attr": {"value": {"tensor": {"dtype": "DT_FLOAT", "tensorShape": {"dim": [{"size": "1"}, {"size": "1"}, {"size": "48"}, {"size": "1152"}]}}}, "dtype": {"type": "DT_FLOAT"}}}, {"name": "StatefulPartitionedCall/sequential_2/efficientnet_v2_s2/StatefulPartitionedCall/StatefulPartitionedCall/StatefulPartitionedCall/blocks_16/StatefulPartitionedCall/se/conv2d_1/BiasAdd/ReadVariableOp", "op": "Const", "input": ["^StatefulPartitionedCall/sequential_2/sequential/resizing/resize/ResizeBilinear"], "attr": {"value": {"tensor": {"dtype": "DT_FLOAT", "tensorShape": {"dim": [{"size": "1152"}]}}}, "dtype": {"type": "DT_FLOAT"}}}, {"name": "StatefulPartitionedCall/sequential_2/efficientnet_v2_s2/StatefulPartitionedCall/StatefulPartitionedCall/StatefulPartitionedCall/blocks_15/StatefulPartitionedCall/se/Mean/reduction_indices", "op": "Const", "input": ["^StatefulPartitionedCall/sequential_2/sequential/resizing/resize/ResizeBilinear"], "attr": {"value": {"tensor": {"dtype": "DT_INT32", "tensorShape": {"dim": [{"size": "2"}]}}}, "dtype": {"type": "DT_INT32"}}}, {"name": "StatefulPartitionedCall/sequential_2/efficientnet_v2_s2/StatefulPartitionedCall/StatefulPartitionedCall/StatefulPartitionedCall/blocks_15/StatefulPartitionedCall/se/conv2d/Conv2D/ReadVariableOp", "op": "Const", "input": ["^StatefulPartitionedCall/sequential_2/sequential/resizing/resize/ResizeBilinear"], "attr": {"value": {"tensor": {"dtype": "DT_FLOAT", "tensorShape": {"dim": [{"size": "1"}, {"size": "1"}, {"size": "1152"}, {"size": "48"}]}}}, "dtype": {"type": "DT_FLOAT"}}}, {"name": "StatefulPartitionedCall/sequential_2/efficientnet_v2_s2/StatefulPartitionedCall/StatefulPartitionedCall/StatefulPartitionedCall/blocks_15/StatefulPartitionedCall/se/conv2d/BiasAdd/ReadVariableOp", "op": "Const", "input": ["^StatefulPartitionedCall/sequential_2/sequential/resizing/resize/ResizeBilinear"], "attr": {"value": {"tensor": {"dtype": "DT_FLOAT", "tensorShape": {"dim": [{"size": "48"}]}}}, "dtype": {"type": "DT_FLOAT"}}}, {"name": "StatefulPartitionedCall/sequential_2/efficientnet_v2_s2/StatefulPartitionedCall/StatefulPartitionedCall/StatefulPartitionedCall/blocks_15/StatefulPartitionedCall/se/conv2d_1/Conv2D/ReadVariableOp", "op": "Const", "input": ["^StatefulPartitionedCall/sequential_2/sequential/resizing/resize/ResizeBilinear"], "attr": {"value": {"tensor": {"dtype": "DT_FLOAT", "tensorShape": {"dim": [{"size": "1"}, {"size": "1"}, {"size": "48"}, {"size": "1152"}]}}}, "dtype": {"type": "DT_FLOAT"}}}, {"name": "StatefulPartitionedCall/sequential_2/efficientnet_v2_s2/StatefulPartitionedCall/StatefulPartitionedCall/StatefulPartitionedCall/blocks_15/StatefulPartitionedCall/se/conv2d_1/BiasAdd/ReadVariableOp", "op": "Const", "input": ["^StatefulPartitionedCall/sequential_2/sequential/resizing/resize/ResizeBilinear"], "attr": {"value": {"tensor": {"dtype": "DT_FLOAT", "tensorShape": {"dim": [{"size": "1152"}]}}}, "dtype": {"type": "DT_FLOAT"}}}, {"name": "StatefulPartitionedCall/sequential_2/efficientnet_v2_s2/StatefulPartitionedCall/StatefulPartitionedCall/StatefulPartitionedCall/blocks_14/StatefulPartitionedCall/se/Mean/reduction_indices", "op": "Const", "input": ["^StatefulPartitionedCall/sequential_2/sequential/resizing/resize/ResizeBilinear"], "attr": {"value": {"tensor": {"dtype": "DT_INT32", "tensorShape": {"dim": [{"size": "2"}]}}}, "dtype": {"type": "DT_INT32"}}}, {"name": "StatefulPartitionedCall/sequential_2/efficientnet_v2_s2/StatefulPartitionedCall/StatefulPartitionedCall/StatefulPartitionedCall/blocks_14/StatefulPartitionedCall/se/conv2d/Conv2D/ReadVariableOp", "op": "Const", "input": ["^StatefulPartitionedCall/sequential_2/sequential/resizing/resize/ResizeBilinear"], "attr": {"value": {"tensor": {"dtype": "DT_FLOAT", "tensorShape": {"dim": [{"size": "1"}, {"size": "1"}, {"size": "1152"}, {"size": "48"}]}}}, "dtype": {"type": "DT_FLOAT"}}}, {"name": "StatefulPartitionedCall/sequential_2/efficientnet_v2_s2/StatefulPartitionedCall/StatefulPartitionedCall/StatefulPartitionedCall/blocks_14/StatefulPartitionedCall/se/conv2d/BiasAdd/ReadVariableOp", "op": "Const", "input": ["^StatefulPartitionedCall/sequential_2/sequential/resizing/resize/ResizeBilinear"], "attr": {"value": {"tensor": {"dtype": "DT_FLOAT", "tensorShape": {"dim": [{"size": "48"}]}}}, "dtype": {"type": "DT_FLOAT"}}}, {"name": "StatefulPartitionedCall/sequential_2/efficientnet_v2_s2/StatefulPartitionedCall/StatefulPartitionedCall/StatefulPartitionedCall/blocks_14/StatefulPartitionedCall/se/conv2d_1/Conv2D/ReadVariableOp", "op": "Const", "input": ["^StatefulPartitionedCall/sequential_2/sequential/resizing/resize/ResizeBilinear"], "attr": {"value": {"tensor": {"dtype": "DT_FLOAT", "tensorShape": {"dim": [{"size": "1"}, {"size": "1"}, {"size": "48"}, {"size": "1152"}]}}}, "dtype": {"type": "DT_FLOAT"}}}, {"name": "StatefulPartitionedCall/sequential_2/efficientnet_v2_s2/StatefulPartitionedCall/StatefulPartitionedCall/StatefulPartitionedCall/blocks_14/StatefulPartitionedCall/se/conv2d_1/BiasAdd/ReadVariableOp", "op": "Const", "input": ["^StatefulPartitionedCall/sequential_2/sequential/resizing/resize/ResizeBilinear"], "attr": {"value": {"tensor": {"dtype": "DT_FLOAT", "tensorShape": {"dim": [{"size": "1152"}]}}}, "dtype": {"type": "DT_FLOAT"}}}, {"name": "StatefulPartitionedCall/sequential_2/efficientnet_v2_s2/StatefulPartitionedCall/StatefulPartitionedCall/StatefulPartitionedCall/blocks_13/StatefulPartitionedCall/se/Mean/reduction_indices", "op": "Const", "input": ["^StatefulPartitionedCall/sequential_2/sequential/resizing/resize/ResizeBilinear"], "attr": {"value": {"tensor": {"dtype": "DT_INT32", "tensorShape": {"dim": [{"size": "2"}]}}}, "dtype": {"type": "DT_INT32"}}}, {"name": "StatefulPartitionedCall/sequential_2/efficientnet_v2_s2/StatefulPartitionedCall/StatefulPartitionedCall/StatefulPartitionedCall/blocks_13/StatefulPartitionedCall/se/conv2d/Conv2D/ReadVariableOp", "op": "Const", "input": ["^StatefulPartitionedCall/sequential_2/sequential/resizing/resize/ResizeBilinear"], "attr": {"value": {"tensor": {"dtype": "DT_FLOAT", "tensorShape": {"dim": [{"size": "1"}, {"size": "1"}, {"size": "672"}, {"size": "28"}]}}}, "dtype": {"type": "DT_FLOAT"}}}, {"name": "StatefulPartitionedCall/sequential_2/efficientnet_v2_s2/StatefulPartitionedCall/StatefulPartitionedCall/StatefulPartitionedCall/blocks_13/StatefulPartitionedCall/se/conv2d/BiasAdd/ReadVariableOp", "op": "Const", "input": ["^StatefulPartitionedCall/sequential_2/sequential/resizing/resize/ResizeBilinear"], "attr": {"value": {"tensor": {"dtype": "DT_FLOAT", "tensorShape": {"dim": [{"size": "28"}]}}}, "dtype": {"type": "DT_FLOAT"}}}, {"name": "StatefulPartitionedCall/sequential_2/efficientnet_v2_s2/StatefulPartitionedCall/StatefulPartitionedCall/StatefulPartitionedCall/blocks_13/StatefulPartitionedCall/se/conv2d_1/Conv2D/ReadVariableOp", "op": "Const", "input": ["^StatefulPartitionedCall/sequential_2/sequential/resizing/resize/ResizeBilinear"], "attr": {"value": {"tensor": {"dtype": "DT_FLOAT", "tensorShape": {"dim": [{"size": "1"}, {"size": "1"}, {"size": "28"}, {"size": "672"}]}}}, "dtype": {"type": "DT_FLOAT"}}}, {"name": "StatefulPartitionedCall/sequential_2/efficientnet_v2_s2/StatefulPartitionedCall/StatefulPartitionedCall/StatefulPartitionedCall/blocks_13/StatefulPartitionedCall/se/conv2d_1/BiasAdd/ReadVariableOp", "op": "Const", "input": ["^StatefulPartitionedCall/sequential_2/sequential/resizing/resize/ResizeBilinear"], "attr": {"value": {"tensor": {"dtype": "DT_FLOAT", "tensorShape": {"dim": [{"size": "672"}]}}}, "dtype": {"type": "DT_FLOAT"}}}, {"name": "StatefulPartitionedCall/sequential_2/efficientnet_v2_s2/StatefulPartitionedCall/StatefulPartitionedCall/StatefulPartitionedCall/blocks_12/StatefulPartitionedCall/se/Mean/reduction_indices", "op": "Const", "input": ["^StatefulPartitionedCall/sequential_2/sequential/resizing/resize/ResizeBilinear"], "attr": {"value": {"tensor": {"dtype": "DT_INT32", "tensorShape": {"dim": [{"size": "2"}]}}}, "dtype": {"type": "DT_INT32"}}}, {"name": "StatefulPartitionedCall/sequential_2/efficientnet_v2_s2/StatefulPartitionedCall/StatefulPartitionedCall/StatefulPartitionedCall/blocks_12/StatefulPartitionedCall/se/conv2d/Conv2D/ReadVariableOp", "op": "Const", "input": ["^StatefulPartitionedCall/sequential_2/sequential/resizing/resize/ResizeBilinear"], "attr": {"value": {"tensor": {"dtype": "DT_FLOAT", "tensorShape": {"dim": [{"size": "1"}, {"size": "1"}, {"size": "672"}, {"size": "28"}]}}}, "dtype": {"type": "DT_FLOAT"}}}, {"name": "StatefulPartitionedCall/sequential_2/efficientnet_v2_s2/StatefulPartitionedCall/StatefulPartitionedCall/StatefulPartitionedCall/blocks_12/StatefulPartitionedCall/se/conv2d/BiasAdd/ReadVariableOp", "op": "Const", "input": ["^StatefulPartitionedCall/sequential_2/sequential/resizing/resize/ResizeBilinear"], "attr": {"value": {"tensor": {"dtype": "DT_FLOAT", "tensorShape": {"dim": [{"size": "28"}]}}}, "dtype": {"type": "DT_FLOAT"}}}, {"name": "StatefulPartitionedCall/sequential_2/efficientnet_v2_s2/StatefulPartitionedCall/StatefulPartitionedCall/StatefulPartitionedCall/blocks_12/StatefulPartitionedCall/se/conv2d_1/Conv2D/ReadVariableOp", "op": "Const", "input": ["^StatefulPartitionedCall/sequential_2/sequential/resizing/resize/ResizeBilinear"], "attr": {"value": {"tensor": {"dtype": "DT_FLOAT", "tensorShape": {"dim": [{"size": "1"}, {"size": "1"}, {"size": "28"}, {"size": "672"}]}}}, "dtype": {"type": "DT_FLOAT"}}}, {"name": "StatefulPartitionedCall/sequential_2/efficientnet_v2_s2/StatefulPartitionedCall/StatefulPartitionedCall/StatefulPartitionedCall/blocks_12/StatefulPartitionedCall/se/conv2d_1/BiasAdd/ReadVariableOp", "op": "Const", "input": ["^StatefulPartitionedCall/sequential_2/sequential/resizing/resize/ResizeBilinear"], "attr": {"value": {"tensor": {"dtype": "DT_FLOAT", "tensorShape": {"dim": [{"size": "672"}]}}}, "dtype": {"type": "DT_FLOAT"}}}, {"name": "StatefulPartitionedCall/sequential_2/efficientnet_v2_s2/StatefulPartitionedCall/StatefulPartitionedCall/StatefulPartitionedCall/blocks_11/StatefulPartitionedCall/se/Mean/reduction_indices", "op": "Const", "input": ["^StatefulPartitionedCall/sequential_2/sequential/resizing/resize/ResizeBilinear"], "attr": {"value": {"tensor": {"dtype": "DT_INT32", "tensorShape": {"dim": [{"size": "2"}]}}}, "dtype": {"type": "DT_INT32"}}}, {"name": "StatefulPartitionedCall/sequential_2/efficientnet_v2_s2/StatefulPartitionedCall/StatefulPartitionedCall/StatefulPartitionedCall/blocks_11/StatefulPartitionedCall/se/conv2d/Conv2D/ReadVariableOp", "op": "Const", "input": ["^StatefulPartitionedCall/sequential_2/sequential/resizing/resize/ResizeBilinear"], "attr": {"value": {"tensor": {"dtype": "DT_FLOAT", "tensorShape": {"dim": [{"size": "1"}, {"size": "1"}, {"size": "672"}, {"size": "28"}]}}}, "dtype": {"type": "DT_FLOAT"}}}, {"name": "StatefulPartitionedCall/sequential_2/efficientnet_v2_s2/StatefulPartitionedCall/StatefulPartitionedCall/StatefulPartitionedCall/blocks_11/StatefulPartitionedCall/se/conv2d/BiasAdd/ReadVariableOp", "op": "Const", "input": ["^StatefulPartitionedCall/sequential_2/sequential/resizing/resize/ResizeBilinear"], "attr": {"value": {"tensor": {"dtype": "DT_FLOAT", "tensorShape": {"dim": [{"size": "28"}]}}}, "dtype": {"type": "DT_FLOAT"}}}, {"name": "StatefulPartitionedCall/sequential_2/efficientnet_v2_s2/StatefulPartitionedCall/StatefulPartitionedCall/StatefulPartitionedCall/blocks_11/StatefulPartitionedCall/se/conv2d_1/Conv2D/ReadVariableOp", "op": "Const", "input": ["^StatefulPartitionedCall/sequential_2/sequential/resizing/resize/ResizeBilinear"], "attr": {"value": {"tensor": {"dtype": "DT_FLOAT", "tensorShape": {"dim": [{"size": "1"}, {"size": "1"}, {"size": "28"}, {"size": "672"}]}}}, "dtype": {"type": "DT_FLOAT"}}}, {"name": "StatefulPartitionedCall/sequential_2/efficientnet_v2_s2/StatefulPartitionedCall/StatefulPartitionedCall/StatefulPartitionedCall/blocks_11/StatefulPartitionedCall/se/conv2d_1/BiasAdd/ReadVariableOp", "op": "Const", "input": ["^StatefulPartitionedCall/sequential_2/sequential/resizing/resize/ResizeBilinear"], "attr": {"value": {"tensor": {"dtype": "DT_FLOAT", "tensorShape": {"dim": [{"size": "672"}]}}}, "dtype": {"type": "DT_FLOAT"}}}, {"name": "StatefulPartitionedCall/sequential_2/efficientnet_v2_s2/StatefulPartitionedCall/StatefulPartitionedCall/StatefulPartitionedCall/blocks_10/StatefulPartitionedCall/se/Mean/reduction_indices", "op": "Const", "input": ["^StatefulPartitionedCall/sequential_2/sequential/resizing/resize/ResizeBilinear"], "attr": {"value": {"tensor": {"dtype": "DT_INT32", "tensorShape": {"dim": [{"size": "2"}]}}}, "dtype": {"type": "DT_INT32"}}}, {"name": "StatefulPartitionedCall/sequential_2/efficientnet_v2_s2/StatefulPartitionedCall/StatefulPartitionedCall/StatefulPartitionedCall/blocks_10/StatefulPartitionedCall/se/conv2d/Conv2D/ReadVariableOp", "op": "Const", "input": ["^StatefulPartitionedCall/sequential_2/sequential/resizing/resize/ResizeBilinear"], "attr": {"value": {"tensor": {"dtype": "DT_FLOAT", "tensorShape": {"dim": [{"size": "1"}, {"size": "1"}, {"size": "672"}, {"size": "28"}]}}}, "dtype": {"type": "DT_FLOAT"}}}, {"name": "StatefulPartitionedCall/sequential_2/efficientnet_v2_s2/StatefulPartitionedCall/StatefulPartitionedCall/StatefulPartitionedCall/blocks_10/StatefulPartitionedCall/se/conv2d/BiasAdd/ReadVariableOp", "op": "Const", "input": ["^StatefulPartitionedCall/sequential_2/sequential/resizing/resize/ResizeBilinear"], "attr": {"value": {"tensor": {"dtype": "DT_FLOAT", "tensorShape": {"dim": [{"size": "28"}]}}}, "dtype": {"type": "DT_FLOAT"}}}, {"name": "StatefulPartitionedCall/sequential_2/efficientnet_v2_s2/StatefulPartitionedCall/StatefulPartitionedCall/StatefulPartitionedCall/blocks_10/StatefulPartitionedCall/se/conv2d_1/Conv2D/ReadVariableOp", "op": "Const", "input": ["^StatefulPartitionedCall/sequential_2/sequential/resizing/resize/ResizeBilinear"], "attr": {"value": {"tensor": {"dtype": "DT_FLOAT", "tensorShape": {"dim": [{"size": "1"}, {"size": "1"}, {"size": "28"}, {"size": "672"}]}}}, "dtype": {"type": "DT_FLOAT"}}}, {"name": "StatefulPartitionedCall/sequential_2/efficientnet_v2_s2/StatefulPartitionedCall/StatefulPartitionedCall/StatefulPartitionedCall/blocks_10/StatefulPartitionedCall/se/conv2d_1/BiasAdd/ReadVariableOp", "op": "Const", "input": ["^StatefulPartitionedCall/sequential_2/sequential/resizing/resize/ResizeBilinear"], "attr": {"value": {"tensor": {"dtype": "DT_FLOAT", "tensorShape": {"dim": [{"size": "672"}]}}}, "dtype": {"type": "DT_FLOAT"}}}, {"name": "StatefulPartitionedCall/sequential_2/efficientnet_v2_s2/StatefulPartitionedCall/StatefulPartitionedCall/StatefulPartitionedCall/blocks_9/StatefulPartitionedCall/se/Mean/reduction_indices", "op": "Const", "input": ["^StatefulPartitionedCall/sequential_2/sequential/resizing/resize/ResizeBilinear"], "attr": {"value": {"tensor": {"dtype": "DT_INT32", "tensorShape": {"dim": [{"size": "2"}]}}}, "dtype": {"type": "DT_INT32"}}}, {"name": "StatefulPartitionedCall/sequential_2/efficientnet_v2_s2/StatefulPartitionedCall/StatefulPartitionedCall/StatefulPartitionedCall/blocks_9/StatefulPartitionedCall/se/conv2d/Conv2D/ReadVariableOp", "op": "Const", "input": ["^StatefulPartitionedCall/sequential_2/sequential/resizing/resize/ResizeBilinear"], "attr": {"value": {"tensor": {"dtype": "DT_FLOAT", "tensorShape": {"dim": [{"size": "1"}, {"size": "1"}, {"size": "672"}, {"size": "28"}]}}}, "dtype": {"type": "DT_FLOAT"}}}, {"name": "StatefulPartitionedCall/sequential_2/efficientnet_v2_s2/StatefulPartitionedCall/StatefulPartitionedCall/StatefulPartitionedCall/blocks_9/StatefulPartitionedCall/se/conv2d/BiasAdd/ReadVariableOp", "op": "Const", "input": ["^StatefulPartitionedCall/sequential_2/sequential/resizing/resize/ResizeBilinear"], "attr": {"value": {"tensor": {"dtype": "DT_FLOAT", "tensorShape": {"dim": [{"size": "28"}]}}}, "dtype": {"type": "DT_FLOAT"}}}, {"name": "StatefulPartitionedCall/sequential_2/efficientnet_v2_s2/StatefulPartitionedCall/StatefulPartitionedCall/StatefulPartitionedCall/blocks_9/StatefulPartitionedCall/se/conv2d_1/Conv2D/ReadVariableOp", "op": "Const", "input": ["^StatefulPartitionedCall/sequential_2/sequential/resizing/resize/ResizeBilinear"], "attr": {"value": {"tensor": {"dtype": "DT_FLOAT", "tensorShape": {"dim": [{"size": "1"}, {"size": "1"}, {"size": "28"}, {"size": "672"}]}}}, "dtype": {"type": "DT_FLOAT"}}}, {"name": "StatefulPartitionedCall/sequential_2/efficientnet_v2_s2/StatefulPartitionedCall/StatefulPartitionedCall/StatefulPartitionedCall/blocks_9/StatefulPartitionedCall/se/conv2d_1/BiasAdd/ReadVariableOp", "op": "Const", "input": ["^StatefulPartitionedCall/sequential_2/sequential/resizing/resize/ResizeBilinear"], "attr": {"value": {"tensor": {"dtype": "DT_FLOAT", "tensorShape": {"dim": [{"size": "672"}]}}}, "dtype": {"type": "DT_FLOAT"}}}, {"name": "StatefulPartitionedCall/sequential_2/efficientnet_v2_s2/StatefulPartitionedCall/StatefulPartitionedCall/StatefulPartitionedCall/blocks_8/StatefulPartitionedCall/se/Mean/reduction_indices", "op": "Const", "input": ["^StatefulPartitionedCall/sequential_2/sequential/resizing/resize/ResizeBilinear"], "attr": {"value": {"tensor": {"dtype": "DT_INT32", "tensorShape": {"dim": [{"size": "2"}]}}}, "dtype": {"type": "DT_INT32"}}}, {"name": "StatefulPartitionedCall/sequential_2/efficientnet_v2_s2/StatefulPartitionedCall/StatefulPartitionedCall/StatefulPartitionedCall/blocks_8/StatefulPartitionedCall/se/conv2d/Conv2D/ReadVariableOp", "op": "Const", "input": ["^StatefulPartitionedCall/sequential_2/sequential/resizing/resize/ResizeBilinear"], "attr": {"value": {"tensor": {"dtype": "DT_FLOAT", "tensorShape": {"dim": [{"size": "1"}, {"size": "1"}, {"size": "576"}, {"size": "24"}]}}}, "dtype": {"type": "DT_FLOAT"}}}, {"name": "StatefulPartitionedCall/sequential_2/efficientnet_v2_s2/StatefulPartitionedCall/StatefulPartitionedCall/StatefulPartitionedCall/blocks_8/StatefulPartitionedCall/se/conv2d/BiasAdd/ReadVariableOp", "op": "Const", "input": ["^StatefulPartitionedCall/sequential_2/sequential/resizing/resize/ResizeBilinear"], "attr": {"value": {"tensor": {"dtype": "DT_FLOAT", "tensorShape": {"dim": [{"size": "24"}]}}}, "dtype": {"type": "DT_FLOAT"}}}, {"name": "StatefulPartitionedCall/sequential_2/efficientnet_v2_s2/StatefulPartitionedCall/StatefulPartitionedCall/StatefulPartitionedCall/blocks_8/StatefulPartitionedCall/se/conv2d_1/Conv2D/ReadVariableOp", "op": "Const", "input": ["^StatefulPartitionedCall/sequential_2/sequential/resizing/resize/ResizeBilinear"], "attr": {"value": {"tensor": {"dtype": "DT_FLOAT", "tensorShape": {"dim": [{"size": "1"}, {"size": "1"}, {"size": "24"}, {"size": "576"}]}}}, "dtype": {"type": "DT_FLOAT"}}}, {"name": "StatefulPartitionedCall/sequential_2/efficientnet_v2_s2/StatefulPartitionedCall/StatefulPartitionedCall/StatefulPartitionedCall/blocks_8/StatefulPartitionedCall/se/conv2d_1/BiasAdd/ReadVariableOp", "op": "Const", "input": ["^StatefulPartitionedCall/sequential_2/sequential/resizing/resize/ResizeBilinear"], "attr": {"value": {"tensor": {"dtype": "DT_FLOAT", "tensorShape": {"dim": [{"size": "576"}]}}}, "dtype": {"type": "DT_FLOAT"}}}, {"name": "StatefulPartitionedCall/sequential_2/efficientnet_v2_s2/StatefulPartitionedCall/StatefulPartitionedCall/StatefulPartitionedCall/blocks_7/StatefulPartitionedCall/se/Mean/reduction_indices", "op": "Const", "input": ["^StatefulPartitionedCall/sequential_2/sequential/resizing/resize/ResizeBilinear"], "attr": {"value": {"tensor": {"dtype": "DT_INT32", "tensorShape": {"dim": [{"size": "2"}]}}}, "dtype": {"type": "DT_INT32"}}}, {"name": "StatefulPartitionedCall/sequential_2/efficientnet_v2_s2/StatefulPartitionedCall/StatefulPartitionedCall/StatefulPartitionedCall/blocks_7/StatefulPartitionedCall/se/conv2d/Conv2D/ReadVariableOp", "op": "Const", "input": ["^StatefulPartitionedCall/sequential_2/sequential/resizing/resize/ResizeBilinear"], "attr": {"value": {"tensor": {"dtype": "DT_FLOAT", "tensorShape": {"dim": [{"size": "1"}, {"size": "1"}, {"size": "384"}, {"size": "24"}]}}}, "dtype": {"type": "DT_FLOAT"}}}, {"name": "StatefulPartitionedCall/sequential_2/efficientnet_v2_s2/StatefulPartitionedCall/StatefulPartitionedCall/StatefulPartitionedCall/blocks_7/StatefulPartitionedCall/se/conv2d/BiasAdd/ReadVariableOp", "op": "Const", "input": ["^StatefulPartitionedCall/sequential_2/sequential/resizing/resize/ResizeBilinear"], "attr": {"value": {"tensor": {"dtype": "DT_FLOAT", "tensorShape": {"dim": [{"size": "24"}]}}}, "dtype": {"type": "DT_FLOAT"}}}, {"name": "StatefulPartitionedCall/sequential_2/efficientnet_v2_s2/StatefulPartitionedCall/StatefulPartitionedCall/StatefulPartitionedCall/blocks_7/StatefulPartitionedCall/se/conv2d_1/Conv2D/ReadVariableOp", "op": "Const", "input": ["^StatefulPartitionedCall/sequential_2/sequential/resizing/resize/ResizeBilinear"], "attr": {"value": {"tensor": {"dtype": "DT_FLOAT", "tensorShape": {"dim": [{"size": "1"}, {"size": "1"}, {"size": "24"}, {"size": "384"}]}}}, "dtype": {"type": "DT_FLOAT"}}}, {"name": "StatefulPartitionedCall/sequential_2/efficientnet_v2_s2/StatefulPartitionedCall/StatefulPartitionedCall/StatefulPartitionedCall/blocks_7/StatefulPartitionedCall/se/conv2d_1/BiasAdd/ReadVariableOp", "op": "Const", "input": ["^StatefulPartitionedCall/sequential_2/sequential/resizing/resize/ResizeBilinear"], "attr": {"value": {"tensor": {"dtype": "DT_FLOAT", "tensorShape": {"dim": [{"size": "384"}]}}}, "dtype": {"type": "DT_FLOAT"}}}, {"name": "StatefulPartitionedCall/sequential_2/efficientnet_v2_s2/StatefulPartitionedCall/StatefulPartitionedCall/StatefulPartitionedCall/blocks_6/StatefulPartitionedCall/se/Mean/reduction_indices", "op": "Const", "input": ["^StatefulPartitionedCall/sequential_2/sequential/resizing/resize/ResizeBilinear"], "attr": {"value": {"tensor": {"dtype": "DT_INT32", "tensorShape": {"dim": [{"size": "2"}]}}}, "dtype": {"type": "DT_INT32"}}}, {"name": "StatefulPartitionedCall/sequential_2/efficientnet_v2_s2/StatefulPartitionedCall/StatefulPartitionedCall/StatefulPartitionedCall/blocks_6/StatefulPartitionedCall/se/conv2d/Conv2D/ReadVariableOp", "op": "Const", "input": ["^StatefulPartitionedCall/sequential_2/sequential/resizing/resize/ResizeBilinear"], "attr": {"value": {"tensor": {"dtype": "DT_FLOAT", "tensorShape": {"dim": [{"size": "1"}, {"size": "1"}, {"size": "384"}, {"size": "24"}]}}}, "dtype": {"type": "DT_FLOAT"}}}, {"name": "StatefulPartitionedCall/sequential_2/efficientnet_v2_s2/StatefulPartitionedCall/StatefulPartitionedCall/StatefulPartitionedCall/blocks_6/StatefulPartitionedCall/se/conv2d/BiasAdd/ReadVariableOp", "op": "Const", "input": ["^StatefulPartitionedCall/sequential_2/sequential/resizing/resize/ResizeBilinear"], "attr": {"value": {"tensor": {"dtype": "DT_FLOAT", "tensorShape": {"dim": [{"size": "24"}]}}}, "dtype": {"type": "DT_FLOAT"}}}, {"name": "StatefulPartitionedCall/sequential_2/efficientnet_v2_s2/StatefulPartitionedCall/StatefulPartitionedCall/StatefulPartitionedCall/blocks_6/StatefulPartitionedCall/se/conv2d_1/Conv2D/ReadVariableOp", "op": "Const", "input": ["^StatefulPartitionedCall/sequential_2/sequential/resizing/resize/ResizeBilinear"], "attr": {"value": {"tensor": {"dtype": "DT_FLOAT", "tensorShape": {"dim": [{"size": "1"}, {"size": "1"}, {"size": "24"}, {"size": "384"}]}}}, "dtype": {"type": "DT_FLOAT"}}}, {"name": "StatefulPartitionedCall/sequential_2/efficientnet_v2_s2/StatefulPartitionedCall/StatefulPartitionedCall/StatefulPartitionedCall/blocks_6/StatefulPartitionedCall/se/conv2d_1/BiasAdd/ReadVariableOp", "op": "Const", "input": ["^StatefulPartitionedCall/sequential_2/sequential/resizing/resize/ResizeBilinear"], "attr": {"value": {"tensor": {"dtype": "DT_FLOAT", "tensorShape": {"dim": [{"size": "384"}]}}}, "dtype": {"type": "DT_FLOAT"}}}, {"name": "StatefulPartitionedCall/sequential_2/efficientnet_v2_s2/StatefulPartitionedCall/StatefulPartitionedCall/StatefulPartitionedCall/blocks_5/StatefulPartitionedCall/se/Mean/reduction_indices", "op": "Const", "input": ["^StatefulPartitionedCall/sequential_2/sequential/resizing/resize/ResizeBilinear"], "attr": {"value": {"tensor": {"dtype": "DT_INT32", "tensorShape": {"dim": [{"size": "2"}]}}}, "dtype": {"type": "DT_INT32"}}}, {"name": "StatefulPartitionedCall/sequential_2/efficientnet_v2_s2/StatefulPartitionedCall/StatefulPartitionedCall/StatefulPartitionedCall/blocks_5/StatefulPartitionedCall/se/conv2d/Conv2D/ReadVariableOp", "op": "Const", "input": ["^StatefulPartitionedCall/sequential_2/sequential/resizing/resize/ResizeBilinear"], "attr": {"value": {"tensor": {"dtype": "DT_FLOAT", "tensorShape": {"dim": [{"size": "1"}, {"size": "1"}, {"size": "192"}, {"size": "12"}]}}}, "dtype": {"type": "DT_FLOAT"}}}, {"name": "StatefulPartitionedCall/sequential_2/efficientnet_v2_s2/StatefulPartitionedCall/StatefulPartitionedCall/StatefulPartitionedCall/blocks_5/StatefulPartitionedCall/se/conv2d/BiasAdd/ReadVariableOp", "op": "Const", "input": ["^StatefulPartitionedCall/sequential_2/sequential/resizing/resize/ResizeBilinear"], "attr": {"value": {"tensor": {"dtype": "DT_FLOAT", "tensorShape": {"dim": [{"size": "12"}]}}}, "dtype": {"type": "DT_FLOAT"}}}, {"name": "StatefulPartitionedCall/sequential_2/efficientnet_v2_s2/StatefulPartitionedCall/StatefulPartitionedCall/StatefulPartitionedCall/blocks_5/StatefulPartitionedCall/se/conv2d_1/Conv2D/ReadVariableOp", "op": "Const", "input": ["^StatefulPartitionedCall/sequential_2/sequential/resizing/resize/ResizeBilinear"], "attr": {"value": {"tensor": {"dtype": "DT_FLOAT", "tensorShape": {"dim": [{"size": "1"}, {"size": "1"}, {"size": "12"}, {"size": "192"}]}}}, "dtype": {"type": "DT_FLOAT"}}}, {"name": "StatefulPartitionedCall/sequential_2/efficientnet_v2_s2/StatefulPartitionedCall/StatefulPartitionedCall/StatefulPartitionedCall/blocks_5/StatefulPartitionedCall/se/conv2d_1/BiasAdd/ReadVariableOp", "op": "Const", "input": ["^StatefulPartitionedCall/sequential_2/sequential/resizing/resize/ResizeBilinear"], "attr": {"value": {"tensor": {"dtype": "DT_FLOAT", "tensorShape": {"dim": [{"size": "192"}]}}}, "dtype": {"type": "DT_FLOAT"}}}, {"name": "StatefulPartitionedCall/sequential_2/efficientnet_v2_s2/StatefulPartitionedCall/StatefulPartitionedCall/StatefulPartitionedCall/head/StatefulPartitionedCall/global_average_pooling2d/Mean/reduction_indices", "op": "Const", "input": ["^StatefulPartitionedCall/sequential_2/sequential/resizing/resize/ResizeBilinear"], "attr": {"value": {"tensor": {"dtype": "DT_INT32", "tensorShape": {"dim": [{"size": "2"}]}}}, "dtype": {"type": "DT_INT32"}}}, {"name": "StatefulPartitionedCall/sequential_2/efficientnet_v2_s2/StatefulPartitionedCall/StatefulPartitionedCall/StatefulPartitionedCall/head/dense/StatefulPartitionedCall/MatMul/ReadVariableOp", "op": "Const", "input": ["^StatefulPartitionedCall/sequential_2/sequential/resizing/resize/ResizeBilinear"], "attr": {"value": {"tensor": {"dtype": "DT_FLOAT", "tensorShape": {"dim": [{"size": "1280"}, {"size": "1000"}]}}}, "dtype": {"type": "DT_FLOAT"}}}, {"name": "StatefulPartitionedCall/sequential_2/efficientnet_v2_s2/StatefulPartitionedCall/StatefulPartitionedCall/StatefulPartitionedCall/head/dense/StatefulPartitionedCall/BiasAdd/ReadVariableOp", "op": "Const", "input": ["^StatefulPartitionedCall/sequential_2/sequential/resizing/resize/ResizeBilinear"], "attr": {"value": {"tensor": {"dtype": "DT_FLOAT", "tensorShape": {"dim": [{"size": "1000"}]}}}, "dtype": {"type": "DT_FLOAT"}}}, {"name": "StatefulPartitionedCall/sequential_2/efficientnet_v2_s2/StatefulPartitionedCall/StatefulPartitionedCall/StatefulPartitionedCall/stem/StatefulPartitionedCall/tpu_batch_normalization/FusedBatchNormV3", "op": "_FusedConv2D", "input": ["StatefulPartitionedCall/sequential_2/sequential/resizing/resize/ResizeBilinear", "StatefulPartitionedCall/sequential_2/efficientnet_v2_s2/StatefulPartitionedCall/StatefulPartitionedCall/StatefulPartitionedCall/stem/StatefulPartitionedCall/conv2d/Conv2D_weights", "StatefulPartitionedCall/sequential_2/efficientnet_v2_s2/StatefulPartitionedCall/StatefulPartitionedCall/StatefulPartitionedCall/stem/StatefulPartitionedCall/conv2d/Conv2D_bn_offset"], "device": "/device:CPU:0", "attr": {"num_host_args": {"i": "0"}, "data_format": {"s": "TkhXQw=="}, "filter_format": {"s": "SFdJTw=="}, "_input_shapes": {"list": {"shape": [{"dim": [{"size": "-2"}, {"size": "224"}, {"size": "224"}, {"size": "-5"}]}, {"dim": [{"size": "3"}, {"size": "3"}, {"size": "3"}, {"size": "32"}]}]}}, "fused_ops": {"list": {"s": ["Qmlhc0FkZA=="]}}, "num_args": {"i": "1"}, "strides": {"list": {"i": ["1", "2", "2", "1"]}}, "TArgs": {"list": {"type": ["DT_FLOAT"]}}, "padding": {"s": "U0FNRQ=="}, "use_cudnn_on_gpu": {"b": true}, "leakyrelu_alpha": {"f": 0.2}, "epsilon": {"f": 0.0}, "T": {"type": "DT_FLOAT"}, "explicit_paddings": {"list": {}}, "dilations": {"list": {"i": ["1", "1", "1", "1"]}}}}, {"name": "StatefulPartitionedCall/sequential_2/efficientnet_v2_s2/StatefulPartitionedCall/StatefulPartitionedCall/StatefulPartitionedCall/stem/StatefulPartitionedCall/Sigmoid", "op": "Sigmoid", "input": ["StatefulPartitionedCall/sequential_2/efficientnet_v2_s2/StatefulPartitionedCall/StatefulPartitionedCall/StatefulPartitionedCall/stem/StatefulPartitionedCall/tpu_batch_normalization/FusedBatchNormV3"], "attr": {"_input_shapes": {"list": {"shape": [{"dim": [{"size": "-2"}, {"size": "112"}, {"size": "112"}, {"size": "32"}]}]}}, "T": {"type": "DT_FLOAT"}}}, {"name": "StatefulPartitionedCall/sequential_2/efficientnet_v2_s2/StatefulPartitionedCall/StatefulPartitionedCall/StatefulPartitionedCall/stem/StatefulPartitionedCall/mul", "op": "Mul", "input": ["StatefulPartitionedCall/sequential_2/efficientnet_v2_s2/StatefulPartitionedCall/StatefulPartitionedCall/StatefulPartitionedCall/stem/StatefulPartitionedCall/tpu_batch_normalization/FusedBatchNormV3", "StatefulPartitionedCall/sequential_2/efficientnet_v2_s2/StatefulPartitionedCall/StatefulPartitionedCall/StatefulPartitionedCall/stem/StatefulPartitionedCall/Sigmoid"], "attr": {"T": {"type": "DT_FLOAT"}}}, {"name": "StatefulPartitionedCall/sequential_2/efficientnet_v2_s2/StatefulPartitionedCall/StatefulPartitionedCall/StatefulPartitionedCall/blocks_0/StatefulPartitionedCall/tpu_batch_normalization/FusedBatchNormV3", "op": "_FusedConv2D", "input": ["StatefulPartitionedCall/sequential_2/efficientnet_v2_s2/StatefulPartitionedCall/StatefulPartitionedCall/StatefulPartitionedCall/stem/StatefulPartitionedCall/mul", "StatefulPartitionedCall/sequential_2/efficientnet_v2_s2/StatefulPartitionedCall/StatefulPartitionedCall/StatefulPartitionedCall/blocks_0/StatefulPartitionedCall/conv2d/Conv2D_weights", "StatefulPartitionedCall/sequential_2/efficientnet_v2_s2/StatefulPartitionedCall/StatefulPartitionedCall/StatefulPartitionedCall/blocks_0/StatefulPartitionedCall/conv2d/Conv2D_bn_offset"], "device": "/device:CPU:0", "attr": {"num_host_args": {"i": "0"}, "data_format": {"s": "TkhXQw=="}, "filter_format": {"s": "SFdJTw=="}, "_input_shapes": {"list": {"shape": [{"dim": [{"size": "-2"}, {"size": "112"}, {"size": "112"}, {"size": "32"}]}, {"dim": [{"size": "3"}, {"size": "3"}, {"size": "32"}, {"size": "16"}]}]}}, "strides": {"list": {"i": ["1", "1", "1", "1"]}}, "num_args": {"i": "1"}, "fused_ops": {"list": {"s": ["Qmlhc0FkZA=="]}}, "TArgs": {"list": {"type": ["DT_FLOAT"]}}, "padding": {"s": "U0FNRQ=="}, "use_cudnn_on_gpu": {"b": true}, "leakyrelu_alpha": {"f": 0.2}, "epsilon": {"f": 0.0}, "T": {"type": "DT_FLOAT"}, "explicit_paddings": {"list": {}}, "dilations": {"list": {"i": ["1", "1", "1", "1"]}}}}, {"name": "StatefulPartitionedCall/sequential_2/efficientnet_v2_s2/StatefulPartitionedCall/StatefulPartitionedCall/StatefulPartitionedCall/blocks_0/StatefulPartitionedCall/Sigmoid", "op": "Sigmoid", "input": ["StatefulPartitionedCall/sequential_2/efficientnet_v2_s2/StatefulPartitionedCall/StatefulPartitionedCall/StatefulPartitionedCall/blocks_0/StatefulPartitionedCall/tpu_batch_normalization/FusedBatchNormV3"], "attr": {"_input_shapes": {"list": {"shape": [{"dim": [{"size": "-2"}, {"size": "112"}, {"size": "112"}, {"size": "16"}]}]}}, "T": {"type": "DT_FLOAT"}}}, {"name": "StatefulPartitionedCall/sequential_2/efficientnet_v2_s2/StatefulPartitionedCall/StatefulPartitionedCall/StatefulPartitionedCall/blocks_0/StatefulPartitionedCall/mul", "op": "Mul", "input": ["StatefulPartitionedCall/sequential_2/efficientnet_v2_s2/StatefulPartitionedCall/StatefulPartitionedCall/StatefulPartitionedCall/blocks_0/StatefulPartitionedCall/tpu_batch_normalization/FusedBatchNormV3", "StatefulPartitionedCall/sequential_2/efficientnet_v2_s2/StatefulPartitionedCall/StatefulPartitionedCall/StatefulPartitionedCall/blocks_0/StatefulPartitionedCall/Sigmoid"], "attr": {"T": {"type": "DT_FLOAT"}}}, {"name": "StatefulPartitionedCall/sequential_2/efficientnet_v2_s2/StatefulPartitionedCall/StatefulPartitionedCall/StatefulPartitionedCall/blocks_1/StatefulPartitionedCall/tpu_batch_normalization/FusedBatchNormV3", "op": "_FusedConv2D", "input": ["StatefulPartitionedCall/sequential_2/efficientnet_v2_s2/StatefulPartitionedCall/StatefulPartitionedCall/StatefulPartitionedCall/blocks_0/StatefulPartitionedCall/mul", "StatefulPartitionedCall/sequential_2/efficientnet_v2_s2/StatefulPartitionedCall/StatefulPartitionedCall/StatefulPartitionedCall/blocks_1/StatefulPartitionedCall/conv2d/Conv2D_weights", "StatefulPartitionedCall/sequential_2/efficientnet_v2_s2/StatefulPartitionedCall/StatefulPartitionedCall/StatefulPartitionedCall/blocks_1/StatefulPartitionedCall/conv2d/Conv2D_bn_offset"], "device": "/device:CPU:0", "attr": {"num_host_args": {"i": "0"}, "_input_shapes": {"list": {"shape": [{"dim": [{"size": "-2"}, {"size": "112"}, {"size": "112"}, {"size": "16"}]}, {"dim": [{"size": "3"}, {"size": "3"}, {"size": "16"}, {"size": "64"}]}]}}, "filter_format": {"s": "SFdJTw=="}, "data_format": {"s": "TkhXQw=="}, "strides": {"list": {"i": ["1", "2", "2", "1"]}}, "num_args": {"i": "1"}, "fused_ops": {"list": {"s": ["Qmlhc0FkZA=="]}}, "TArgs": {"list": {"type": ["DT_FLOAT"]}}, "padding": {"s": "U0FNRQ=="}, "use_cudnn_on_gpu": {"b": true}, "leakyrelu_alpha": {"f": 0.2}, "epsilon": {"f": 0.0}, "T": {"type": "DT_FLOAT"}, "explicit_paddings": {"list": {}}, "dilations": {"list": {"i": ["1", "1", "1", "1"]}}}}, {"name": "StatefulPartitionedCall/sequential_2/efficientnet_v2_s2/StatefulPartitionedCall/StatefulPartitionedCall/StatefulPartitionedCall/blocks_1/StatefulPartitionedCall/Sigmoid", "op": "Sigmoid", "input": ["StatefulPartitionedCall/sequential_2/efficientnet_v2_s2/StatefulPartitionedCall/StatefulPartitionedCall/StatefulPartitionedCall/blocks_1/StatefulPartitionedCall/tpu_batch_normalization/FusedBatchNormV3"], "attr": {"_input_shapes": {"list": {"shape": [{"dim": [{"size": "-2"}, {"size": "56"}, {"size": "56"}, {"size": "64"}]}]}}, "T": {"type": "DT_FLOAT"}}}, {"name": "StatefulPartitionedCall/sequential_2/efficientnet_v2_s2/StatefulPartitionedCall/StatefulPartitionedCall/StatefulPartitionedCall/blocks_1/StatefulPartitionedCall/mul", "op": "Mul", "input": ["StatefulPartitionedCall/sequential_2/efficientnet_v2_s2/StatefulPartitionedCall/StatefulPartitionedCall/StatefulPartitionedCall/blocks_1/StatefulPartitionedCall/tpu_batch_normalization/FusedBatchNormV3", "StatefulPartitionedCall/sequential_2/efficientnet_v2_s2/StatefulPartitionedCall/StatefulPartitionedCall/StatefulPartitionedCall/blocks_1/StatefulPartitionedCall/Sigmoid"], "attr": {"T": {"type": "DT_FLOAT"}}}, {"name": "StatefulPartitionedCall/sequential_2/efficientnet_v2_s2/StatefulPartitionedCall/StatefulPartitionedCall/StatefulPartitionedCall/blocks_1/StatefulPartitionedCall/tpu_batch_normalization_1/FusedBatchNormV3", "op": "_FusedConv2D", "input": ["StatefulPartitionedCall/sequential_2/efficientnet_v2_s2/StatefulPartitionedCall/StatefulPartitionedCall/StatefulPartitionedCall/blocks_1/StatefulPartitionedCall/mul", "StatefulPartitionedCall/sequential_2/efficientnet_v2_s2/StatefulPartitionedCall/StatefulPartitionedCall/StatefulPartitionedCall/blocks_1/StatefulPartitionedCall/conv2d_1/Conv2D_weights", "StatefulPartitionedCall/sequential_2/efficientnet_v2_s2/StatefulPartitionedCall/StatefulPartitionedCall/StatefulPartitionedCall/blocks_1/StatefulPartitionedCall/conv2d_1/Conv2D_bn_offset"], "device": "/device:CPU:0", "attr": {"num_host_args": {"i": "0"}, "data_format": {"s": "TkhXQw=="}, "filter_format": {"s": "SFdJTw=="}, "_input_shapes": {"list": {"shape": [{"dim": [{"size": "-2"}, {"size": "56"}, {"size": "56"}, {"size": "64"}]}, {"dim": [{"size": "1"}, {"size": "1"}, {"size": "64"}, {"size": "32"}]}]}}, "strides": {"list": {"i": ["1", "1", "1", "1"]}}, "num_args": {"i": "1"}, "fused_ops": {"list": {"s": ["Qmlhc0FkZA=="]}}, "TArgs": {"list": {"type": ["DT_FLOAT"]}}, "padding": {"s": "U0FNRQ=="}, "use_cudnn_on_gpu": {"b": true}, "leakyrelu_alpha": {"f": 0.2}, "epsilon": {"f": 0.0}, "T": {"type": "DT_FLOAT"}, "explicit_paddings": {"list": {}}, "dilations": {"list": {"i": ["1", "1", "1", "1"]}}}}, {"name": "StatefulPartitionedCall/sequential_2/efficientnet_v2_s2/StatefulPartitionedCall/StatefulPartitionedCall/StatefulPartitionedCall/blocks_2/StatefulPartitionedCall/tpu_batch_normalization/FusedBatchNormV3", "op": "_FusedConv2D", "input": ["StatefulPartitionedCall/sequential_2/efficientnet_v2_s2/StatefulPartitionedCall/StatefulPartitionedCall/StatefulPartitionedCall/blocks_1/StatefulPartitionedCall/tpu_batch_normalization_1/FusedBatchNormV3", "StatefulPartitionedCall/sequential_2/efficientnet_v2_s2/StatefulPartitionedCall/StatefulPartitionedCall/StatefulPartitionedCall/blocks_2/StatefulPartitionedCall/conv2d/Conv2D_weights", "StatefulPartitionedCall/sequential_2/efficientnet_v2_s2/StatefulPartitionedCall/StatefulPartitionedCall/StatefulPartitionedCall/blocks_2/StatefulPartitionedCall/conv2d/Conv2D_bn_offset"], "device": "/device:CPU:0", "attr": {"num_host_args": {"i": "0"}, "data_format": {"s": "TkhXQw=="}, "filter_format": {"s": "SFdJTw=="}, "_input_shapes": {"list": {"shape": [{"dim": [{"size": "-2"}, {"size": "56"}, {"size": "56"}, {"size": "32"}]}, {"dim": [{"size": "3"}, {"size": "3"}, {"size": "32"}, {"size": "128"}]}]}}, "fused_ops": {"list": {"s": ["Qmlhc0FkZA=="]}}, "num_args": {"i": "1"}, "strides": {"list": {"i": ["1", "1", "1", "1"]}}, "TArgs": {"list": {"type": ["DT_FLOAT"]}}, "padding": {"s": "U0FNRQ=="}, "use_cudnn_on_gpu": {"b": true}, "leakyrelu_alpha": {"f": 0.2}, "epsilon": {"f": 0.0}, "T": {"type": "DT_FLOAT"}, "explicit_paddings": {"list": {}}, "dilations": {"list": {"i": ["1", "1", "1", "1"]}}}}, {"name": "StatefulPartitionedCall/sequential_2/efficientnet_v2_s2/StatefulPartitionedCall/StatefulPartitionedCall/StatefulPartitionedCall/blocks_2/StatefulPartitionedCall/Sigmoid", "op": "Sigmoid", "input": ["StatefulPartitionedCall/sequential_2/efficientnet_v2_s2/StatefulPartitionedCall/StatefulPartitionedCall/StatefulPartitionedCall/blocks_2/StatefulPartitionedCall/tpu_batch_normalization/FusedBatchNormV3"], "attr": {"_input_shapes": {"list": {"shape": [{"dim": [{"size": "-2"}, {"size": "56"}, {"size": "56"}, {"size": "128"}]}]}}, "T": {"type": "DT_FLOAT"}}}, {"name": "StatefulPartitionedCall/sequential_2/efficientnet_v2_s2/StatefulPartitionedCall/StatefulPartitionedCall/StatefulPartitionedCall/blocks_2/StatefulPartitionedCall/mul", "op": "Mul", "input": ["StatefulPartitionedCall/sequential_2/efficientnet_v2_s2/StatefulPartitionedCall/StatefulPartitionedCall/StatefulPartitionedCall/blocks_2/StatefulPartitionedCall/tpu_batch_normalization/FusedBatchNormV3", "StatefulPartitionedCall/sequential_2/efficientnet_v2_s2/StatefulPartitionedCall/StatefulPartitionedCall/StatefulPartitionedCall/blocks_2/StatefulPartitionedCall/Sigmoid"], "attr": {"T": {"type": "DT_FLOAT"}}}, {"name": "StatefulPartitionedCall/sequential_2/efficientnet_v2_s2/StatefulPartitionedCall/StatefulPartitionedCall/StatefulPartitionedCall/blocks_2/StatefulPartitionedCall/tpu_batch_normalization_1/FusedBatchNormV3", "op": "_FusedConv2D", "input": ["StatefulPartitionedCall/sequential_2/efficientnet_v2_s2/StatefulPartitionedCall/StatefulPartitionedCall/StatefulPartitionedCall/blocks_2/StatefulPartitionedCall/mul", "StatefulPartitionedCall/sequential_2/efficientnet_v2_s2/StatefulPartitionedCall/StatefulPartitionedCall/StatefulPartitionedCall/blocks_2/StatefulPartitionedCall/conv2d_1/Conv2D_weights", "StatefulPartitionedCall/sequential_2/efficientnet_v2_s2/StatefulPartitionedCall/StatefulPartitionedCall/StatefulPartitionedCall/blocks_2/StatefulPartitionedCall/conv2d_1/Conv2D_bn_offset"], "device": "/device:CPU:0", "attr": {"num_host_args": {"i": "0"}, "data_format": {"s": "TkhXQw=="}, "filter_format": {"s": "SFdJTw=="}, "_input_shapes": {"list": {"shape": [{"dim": [{"size": "-2"}, {"size": "56"}, {"size": "56"}, {"size": "128"}]}, {"dim": [{"size": "1"}, {"size": "1"}, {"size": "128"}, {"size": "32"}]}]}}, "strides": {"list": {"i": ["1", "1", "1", "1"]}}, "num_args": {"i": "1"}, "fused_ops": {"list": {"s": ["Qmlhc0FkZA=="]}}, "TArgs": {"list": {"type": ["DT_FLOAT"]}}, "padding": {"s": "U0FNRQ=="}, "use_cudnn_on_gpu": {"b": true}, "leakyrelu_alpha": {"f": 0.2}, "epsilon": {"f": 0.0}, "T": {"type": "DT_FLOAT"}, "explicit_paddings": {"list": {}}, "dilations": {"list": {"i": ["1", "1", "1", "1"]}}}}, {"name": "StatefulPartitionedCall/sequential_2/efficientnet_v2_s2/StatefulPartitionedCall/StatefulPartitionedCall/StatefulPartitionedCall/blocks_2/StatefulPartitionedCall/Add", "op": "AddV2", "input": ["StatefulPartitionedCall/sequential_2/efficientnet_v2_s2/StatefulPartitionedCall/StatefulPartitionedCall/StatefulPartitionedCall/blocks_2/StatefulPartitionedCall/tpu_batch_normalization_1/FusedBatchNormV3", "StatefulPartitionedCall/sequential_2/efficientnet_v2_s2/StatefulPartitionedCall/StatefulPartitionedCall/StatefulPartitionedCall/blocks_1/StatefulPartitionedCall/tpu_batch_normalization_1/FusedBatchNormV3"], "attr": {"T": {"type": "DT_FLOAT"}}}, {"name": "StatefulPartitionedCall/sequential_2/efficientnet_v2_s2/StatefulPartitionedCall/StatefulPartitionedCall/StatefulPartitionedCall/blocks_3/StatefulPartitionedCall/tpu_batch_normalization/FusedBatchNormV3", "op": "_FusedConv2D", "input": ["StatefulPartitionedCall/sequential_2/efficientnet_v2_s2/StatefulPartitionedCall/StatefulPartitionedCall/StatefulPartitionedCall/blocks_2/StatefulPartitionedCall/Add", "StatefulPartitionedCall/sequential_2/efficientnet_v2_s2/StatefulPartitionedCall/StatefulPartitionedCall/StatefulPartitionedCall/blocks_3/StatefulPartitionedCall/conv2d/Conv2D_weights", "StatefulPartitionedCall/sequential_2/efficientnet_v2_s2/StatefulPartitionedCall/StatefulPartitionedCall/StatefulPartitionedCall/blocks_3/StatefulPartitionedCall/conv2d/Conv2D_bn_offset"], "device": "/device:CPU:0", "attr": {"num_host_args": {"i": "0"}, "data_format": {"s": "TkhXQw=="}, "filter_format": {"s": "SFdJTw=="}, "_input_shapes": {"list": {"shape": [{"dim": [{"size": "-2"}, {"size": "56"}, {"size": "56"}, {"size": "32"}]}, {"dim": [{"size": "3"}, {"size": "3"}, {"size": "32"}, {"size": "128"}]}]}}, "strides": {"list": {"i": ["1", "2", "2", "1"]}}, "num_args": {"i": "1"}, "fused_ops": {"list": {"s": ["Qmlhc0FkZA=="]}}, "TArgs": {"list": {"type": ["DT_FLOAT"]}}, "padding": {"s": "U0FNRQ=="}, "use_cudnn_on_gpu": {"b": true}, "leakyrelu_alpha": {"f": 0.2}, "epsilon": {"f": 0.0}, "T": {"type": "DT_FLOAT"}, "explicit_paddings": {"list": {}}, "dilations": {"list": {"i": ["1", "1", "1", "1"]}}}}, {"name": "StatefulPartitionedCall/sequential_2/efficientnet_v2_s2/StatefulPartitionedCall/StatefulPartitionedCall/StatefulPartitionedCall/blocks_3/StatefulPartitionedCall/Sigmoid", "op": "Sigmoid", "input": ["StatefulPartitionedCall/sequential_2/efficientnet_v2_s2/StatefulPartitionedCall/StatefulPartitionedCall/StatefulPartitionedCall/blocks_3/StatefulPartitionedCall/tpu_batch_normalization/FusedBatchNormV3"], "attr": {"_input_shapes": {"list": {"shape": [{"dim": [{"size": "-2"}, {"size": "28"}, {"size": "28"}, {"size": "128"}]}]}}, "T": {"type": "DT_FLOAT"}}}, {"name": "StatefulPartitionedCall/sequential_2/efficientnet_v2_s2/StatefulPartitionedCall/StatefulPartitionedCall/StatefulPartitionedCall/blocks_3/StatefulPartitionedCall/mul", "op": "Mul", "input": ["StatefulPartitionedCall/sequential_2/efficientnet_v2_s2/StatefulPartitionedCall/StatefulPartitionedCall/StatefulPartitionedCall/blocks_3/StatefulPartitionedCall/tpu_batch_normalization/FusedBatchNormV3", "StatefulPartitionedCall/sequential_2/efficientnet_v2_s2/StatefulPartitionedCall/StatefulPartitionedCall/StatefulPartitionedCall/blocks_3/StatefulPartitionedCall/Sigmoid"], "attr": {"T": {"type": "DT_FLOAT"}}}, {"name": "StatefulPartitionedCall/sequential_2/efficientnet_v2_s2/StatefulPartitionedCall/StatefulPartitionedCall/StatefulPartitionedCall/blocks_3/StatefulPartitionedCall/tpu_batch_normalization_1/FusedBatchNormV3", "op": "_FusedConv2D", "input": ["StatefulPartitionedCall/sequential_2/efficientnet_v2_s2/StatefulPartitionedCall/StatefulPartitionedCall/StatefulPartitionedCall/blocks_3/StatefulPartitionedCall/mul", "StatefulPartitionedCall/sequential_2/efficientnet_v2_s2/StatefulPartitionedCall/StatefulPartitionedCall/StatefulPartitionedCall/blocks_3/StatefulPartitionedCall/conv2d_1/Conv2D_weights", "StatefulPartitionedCall/sequential_2/efficientnet_v2_s2/StatefulPartitionedCall/StatefulPartitionedCall/StatefulPartitionedCall/blocks_3/StatefulPartitionedCall/conv2d_1/Conv2D_bn_offset"], "device": "/device:CPU:0", "attr": {"num_host_args": {"i": "0"}, "data_format": {"s": "TkhXQw=="}, "filter_format": {"s": "SFdJTw=="}, "_input_shapes": {"list": {"shape": [{"dim": [{"size": "-2"}, {"size": "28"}, {"size": "28"}, {"size": "128"}]}, {"dim": [{"size": "1"}, {"size": "1"}, {"size": "128"}, {"size": "48"}]}]}}, "strides": {"list": {"i": ["1", "1", "1", "1"]}}, "num_args": {"i": "1"}, "fused_ops": {"list": {"s": ["Qmlhc0FkZA=="]}}, "TArgs": {"list": {"type": ["DT_FLOAT"]}}, "padding": {"s": "U0FNRQ=="}, "use_cudnn_on_gpu": {"b": true}, "leakyrelu_alpha": {"f": 0.2}, "epsilon": {"f": 0.0}, "T": {"type": "DT_FLOAT"}, "explicit_paddings": {"list": {}}, "dilations": {"list": {"i": ["1", "1", "1", "1"]}}}}, {"name": "StatefulPartitionedCall/sequential_2/efficientnet_v2_s2/StatefulPartitionedCall/StatefulPartitionedCall/StatefulPartitionedCall/blocks_4/StatefulPartitionedCall/tpu_batch_normalization/FusedBatchNormV3", "op": "_FusedConv2D", "input": ["StatefulPartitionedCall/sequential_2/efficientnet_v2_s2/StatefulPartitionedCall/StatefulPartitionedCall/StatefulPartitionedCall/blocks_3/StatefulPartitionedCall/tpu_batch_normalization_1/FusedBatchNormV3", "StatefulPartitionedCall/sequential_2/efficientnet_v2_s2/StatefulPartitionedCall/StatefulPartitionedCall/StatefulPartitionedCall/blocks_4/StatefulPartitionedCall/conv2d/Conv2D_weights", "StatefulPartitionedCall/sequential_2/efficientnet_v2_s2/StatefulPartitionedCall/StatefulPartitionedCall/StatefulPartitionedCall/blocks_4/StatefulPartitionedCall/conv2d/Conv2D_bn_offset"], "device": "/device:CPU:0", "attr": {"num_host_args": {"i": "0"}, "data_format": {"s": "TkhXQw=="}, "filter_format": {"s": "SFdJTw=="}, "_input_shapes": {"list": {"shape": [{"dim": [{"size": "-2"}, {"size": "28"}, {"size": "28"}, {"size": "48"}]}, {"dim": [{"size": "3"}, {"size": "3"}, {"size": "48"}, {"size": "192"}]}]}}, "strides": {"list": {"i": ["1", "1", "1", "1"]}}, "num_args": {"i": "1"}, "fused_ops": {"list": {"s": ["Qmlhc0FkZA=="]}}, "TArgs": {"list": {"type": ["DT_FLOAT"]}}, "padding": {"s": "U0FNRQ=="}, "use_cudnn_on_gpu": {"b": true}, "leakyrelu_alpha": {"f": 0.2}, "epsilon": {"f": 0.0}, "T": {"type": "DT_FLOAT"}, "explicit_paddings": {"list": {}}, "dilations": {"list": {"i": ["1", "1", "1", "1"]}}}}, {"name": "StatefulPartitionedCall/sequential_2/efficientnet_v2_s2/StatefulPartitionedCall/StatefulPartitionedCall/StatefulPartitionedCall/blocks_4/StatefulPartitionedCall/Sigmoid", "op": "Sigmoid", "input": ["StatefulPartitionedCall/sequential_2/efficientnet_v2_s2/StatefulPartitionedCall/StatefulPartitionedCall/StatefulPartitionedCall/blocks_4/StatefulPartitionedCall/tpu_batch_normalization/FusedBatchNormV3"], "attr": {"_input_shapes": {"list": {"shape": [{"dim": [{"size": "-2"}, {"size": "28"}, {"size": "28"}, {"size": "192"}]}]}}, "T": {"type": "DT_FLOAT"}}}, {"name": "StatefulPartitionedCall/sequential_2/efficientnet_v2_s2/StatefulPartitionedCall/StatefulPartitionedCall/StatefulPartitionedCall/blocks_4/StatefulPartitionedCall/mul", "op": "Mul", "input": ["StatefulPartitionedCall/sequential_2/efficientnet_v2_s2/StatefulPartitionedCall/StatefulPartitionedCall/StatefulPartitionedCall/blocks_4/StatefulPartitionedCall/tpu_batch_normalization/FusedBatchNormV3", "StatefulPartitionedCall/sequential_2/efficientnet_v2_s2/StatefulPartitionedCall/StatefulPartitionedCall/StatefulPartitionedCall/blocks_4/StatefulPartitionedCall/Sigmoid"], "attr": {"T": {"type": "DT_FLOAT"}}}, {"name": "StatefulPartitionedCall/sequential_2/efficientnet_v2_s2/StatefulPartitionedCall/StatefulPartitionedCall/StatefulPartitionedCall/blocks_4/StatefulPartitionedCall/tpu_batch_normalization_1/FusedBatchNormV3", "op": "_FusedConv2D", "input": ["StatefulPartitionedCall/sequential_2/efficientnet_v2_s2/StatefulPartitionedCall/StatefulPartitionedCall/StatefulPartitionedCall/blocks_4/StatefulPartitionedCall/mul", "StatefulPartitionedCall/sequential_2/efficientnet_v2_s2/StatefulPartitionedCall/StatefulPartitionedCall/StatefulPartitionedCall/blocks_4/StatefulPartitionedCall/conv2d_1/Conv2D_weights", "StatefulPartitionedCall/sequential_2/efficientnet_v2_s2/StatefulPartitionedCall/StatefulPartitionedCall/StatefulPartitionedCall/blocks_4/StatefulPartitionedCall/conv2d_1/Conv2D_bn_offset"], "device": "/device:CPU:0", "attr": {"num_host_args": {"i": "0"}, "data_format": {"s": "TkhXQw=="}, "filter_format": {"s": "SFdJTw=="}, "_input_shapes": {"list": {"shape": [{"dim": [{"size": "-2"}, {"size": "28"}, {"size": "28"}, {"size": "192"}]}, {"dim": [{"size": "1"}, {"size": "1"}, {"size": "192"}, {"size": "48"}]}]}}, "strides": {"list": {"i": ["1", "1", "1", "1"]}}, "num_args": {"i": "1"}, "fused_ops": {"list": {"s": ["Qmlhc0FkZA=="]}}, "TArgs": {"list": {"type": ["DT_FLOAT"]}}, "padding": {"s": "U0FNRQ=="}, "use_cudnn_on_gpu": {"b": true}, "leakyrelu_alpha": {"f": 0.2}, "epsilon": {"f": 0.0}, "T": {"type": "DT_FLOAT"}, "explicit_paddings": {"list": {}}, "dilations": {"list": {"i": ["1", "1", "1", "1"]}}}}, {"name": "StatefulPartitionedCall/sequential_2/efficientnet_v2_s2/StatefulPartitionedCall/StatefulPartitionedCall/StatefulPartitionedCall/blocks_4/StatefulPartitionedCall/Add", "op": "AddV2", "input": ["StatefulPartitionedCall/sequential_2/efficientnet_v2_s2/StatefulPartitionedCall/StatefulPartitionedCall/StatefulPartitionedCall/blocks_4/StatefulPartitionedCall/tpu_batch_normalization_1/FusedBatchNormV3", "StatefulPartitionedCall/sequential_2/efficientnet_v2_s2/StatefulPartitionedCall/StatefulPartitionedCall/StatefulPartitionedCall/blocks_3/StatefulPartitionedCall/tpu_batch_normalization_1/FusedBatchNormV3"], "attr": {"T": {"type": "DT_FLOAT"}}}, {"name": "StatefulPartitionedCall/sequential_2/efficientnet_v2_s2/StatefulPartitionedCall/StatefulPartitionedCall/StatefulPartitionedCall/blocks_5/StatefulPartitionedCall/tpu_batch_normalization/FusedBatchNormV3", "op": "_FusedConv2D", "input": ["StatefulPartitionedCall/sequential_2/efficientnet_v2_s2/StatefulPartitionedCall/StatefulPartitionedCall/StatefulPartitionedCall/blocks_4/StatefulPartitionedCall/Add", "StatefulPartitionedCall/sequential_2/efficientnet_v2_s2/StatefulPartitionedCall/StatefulPartitionedCall/StatefulPartitionedCall/blocks_5/StatefulPartitionedCall/conv2d/Conv2D_weights", "StatefulPartitionedCall/sequential_2/efficientnet_v2_s2/StatefulPartitionedCall/StatefulPartitionedCall/StatefulPartitionedCall/blocks_5/StatefulPartitionedCall/conv2d/Conv2D_bn_offset"], "device": "/device:CPU:0", "attr": {"num_host_args": {"i": "0"}, "data_format": {"s": "TkhXQw=="}, "filter_format": {"s": "SFdJTw=="}, "_input_shapes": {"list": {"shape": [{"dim": [{"size": "-2"}, {"size": "28"}, {"size": "28"}, {"size": "48"}]}, {"dim": [{"size": "1"}, {"size": "1"}, {"size": "48"}, {"size": "192"}]}]}}, "fused_ops": {"list": {"s": ["Qmlhc0FkZA=="]}}, "num_args": {"i": "1"}, "strides": {"list": {"i": ["1", "1", "1", "1"]}}, "TArgs": {"list": {"type": ["DT_FLOAT"]}}, "padding": {"s": "U0FNRQ=="}, "use_cudnn_on_gpu": {"b": true}, "leakyrelu_alpha": {"f": 0.2}, "epsilon": {"f": 0.0}, "T": {"type": "DT_FLOAT"}, "explicit_paddings": {"list": {}}, "dilations": {"list": {"i": ["1", "1", "1", "1"]}}}}, {"name": "StatefulPartitionedCall/sequential_2/efficientnet_v2_s2/StatefulPartitionedCall/StatefulPartitionedCall/StatefulPartitionedCall/blocks_5/StatefulPartitionedCall/Sigmoid", "op": "Sigmoid", "input": ["StatefulPartitionedCall/sequential_2/efficientnet_v2_s2/StatefulPartitionedCall/StatefulPartitionedCall/StatefulPartitionedCall/blocks_5/StatefulPartitionedCall/tpu_batch_normalization/FusedBatchNormV3"], "attr": {"_input_shapes": {"list": {"shape": [{"dim": [{"size": "-2"}, {"size": "28"}, {"size": "28"}, {"size": "192"}]}]}}, "T": {"type": "DT_FLOAT"}}}, {"name": "StatefulPartitionedCall/sequential_2/efficientnet_v2_s2/StatefulPartitionedCall/StatefulPartitionedCall/StatefulPartitionedCall/blocks_5/StatefulPartitionedCall/mul", "op": "Mul", "input": ["StatefulPartitionedCall/sequential_2/efficientnet_v2_s2/StatefulPartitionedCall/StatefulPartitionedCall/StatefulPartitionedCall/blocks_5/StatefulPartitionedCall/tpu_batch_normalization/FusedBatchNormV3", "StatefulPartitionedCall/sequential_2/efficientnet_v2_s2/StatefulPartitionedCall/StatefulPartitionedCall/StatefulPartitionedCall/blocks_5/StatefulPartitionedCall/Sigmoid"], "attr": {"T": {"type": "DT_FLOAT"}}}, {"name": "StatefulPartitionedCall/sequential_2/efficientnet_v2_s2/StatefulPartitionedCall/StatefulPartitionedCall/StatefulPartitionedCall/blocks_5/StatefulPartitionedCall/depthwise_conv2d/depthwise", "op": "FusedDepthwiseConv2dNative", "input": ["StatefulPartitionedCall/sequential_2/efficientnet_v2_s2/StatefulPartitionedCall/StatefulPartitionedCall/StatefulPartitionedCall/blocks_5/StatefulPartitionedCall/mul", "StatefulPartitionedCall/sequential_2/efficientnet_v2_s2/StatefulPartitionedCall/StatefulPartitionedCall/StatefulPartitionedCall/blocks_5/StatefulPartitionedCall/depthwise_conv2d/depthwise_weights", "StatefulPartitionedCall/sequential_2/efficientnet_v2_s2/StatefulPartitionedCall/StatefulPartitionedCall/StatefulPartitionedCall/blocks_5/StatefulPartitionedCall/depthwise_conv2d/depthwise_bn_offset"], "attr": {"padding": {"s": "U0FNRQ=="}, "_input_shapes": {"list": {"shape": [{"dim": [{"size": "-2"}, {"size": "28"}, {"size": "28"}, {"size": "192"}]}, {"dim": [{"size": "3"}, {"size": "3"}, {"size": "192"}, {"size": "1"}]}]}}, "data_format": {"s": "TkhXQw=="}, "strides": {"list": {"i": ["1", "2", "2", "1"]}}, "num_args": {"i": "1"}, "fused_ops": {"list": {"s": ["Qmlhc0FkZA=="]}}, "T": {"type": "DT_FLOAT"}, "explicit_paddings": {"list": {}}, "dilations": {"list": {"i": ["1", "1", "1", "1"]}}}}, {"name": "StatefulPartitionedCall/sequential_2/efficientnet_v2_s2/StatefulPartitionedCall/StatefulPartitionedCall/StatefulPartitionedCall/blocks_5/StatefulPartitionedCall/Sigmoid_1", "op": "Sigmoid", "input": ["StatefulPartitionedCall/sequential_2/efficientnet_v2_s2/StatefulPartitionedCall/StatefulPartitionedCall/StatefulPartitionedCall/blocks_5/StatefulPartitionedCall/depthwise_conv2d/depthwise"], "attr": {"_input_shapes": {"list": {"shape": [{"dim": [{"size": "-2"}, {"size": "14"}, {"size": "14"}, {"size": "192"}]}]}}, "T": {"type": "DT_FLOAT"}}}, {"name": "StatefulPartitionedCall/sequential_2/efficientnet_v2_s2/StatefulPartitionedCall/StatefulPartitionedCall/StatefulPartitionedCall/blocks_5/StatefulPartitionedCall/mul_1", "op": "Mul", "input": ["StatefulPartitionedCall/sequential_2/efficientnet_v2_s2/StatefulPartitionedCall/StatefulPartitionedCall/StatefulPartitionedCall/blocks_5/StatefulPartitionedCall/depthwise_conv2d/depthwise", "StatefulPartitionedCall/sequential_2/efficientnet_v2_s2/StatefulPartitionedCall/StatefulPartitionedCall/StatefulPartitionedCall/blocks_5/StatefulPartitionedCall/Sigmoid_1"], "attr": {"T": {"type": "DT_FLOAT"}}}, {"name": "StatefulPartitionedCall/sequential_2/efficientnet_v2_s2/StatefulPartitionedCall/StatefulPartitionedCall/StatefulPartitionedCall/blocks_5/StatefulPartitionedCall/se/Mean", "op": "Mean", "input": ["StatefulPartitionedCall/sequential_2/efficientnet_v2_s2/StatefulPartitionedCall/StatefulPartitionedCall/StatefulPartitionedCall/blocks_5/StatefulPartitionedCall/mul_1", "StatefulPartitionedCall/sequential_2/efficientnet_v2_s2/StatefulPartitionedCall/StatefulPartitionedCall/StatefulPartitionedCall/blocks_5/StatefulPartitionedCall/se/Mean/reduction_indices"], "attr": {"T": {"type": "DT_FLOAT"}, "Tidx": {"type": "DT_INT32"}, "keep_dims": {"b": true}}}, {"name": "StatefulPartitionedCall/sequential_2/efficientnet_v2_s2/StatefulPartitionedCall/StatefulPartitionedCall/StatefulPartitionedCall/blocks_5/StatefulPartitionedCall/se/conv2d/BiasAdd", "op": "_FusedConv2D", "input": ["StatefulPartitionedCall/sequential_2/efficientnet_v2_s2/StatefulPartitionedCall/StatefulPartitionedCall/StatefulPartitionedCall/blocks_5/StatefulPartitionedCall/se/Mean", "StatefulPartitionedCall/sequential_2/efficientnet_v2_s2/StatefulPartitionedCall/StatefulPartitionedCall/StatefulPartitionedCall/blocks_5/StatefulPartitionedCall/se/conv2d/Conv2D/ReadVariableOp", "StatefulPartitionedCall/sequential_2/efficientnet_v2_s2/StatefulPartitionedCall/StatefulPartitionedCall/StatefulPartitionedCall/blocks_5/StatefulPartitionedCall/se/conv2d/BiasAdd/ReadVariableOp"], "device": "/device:CPU:0", "attr": {"num_host_args": {"i": "0"}, "_input_shapes": {"list": {"shape": [{"dim": [{"size": "-2"}, {"size": "1"}, {"size": "1"}, {"size": "192"}]}, {"dim": [{"size": "1"}, {"size": "1"}, {"size": "192"}, {"size": "12"}]}]}}, "filter_format": {"s": "SFdJTw=="}, "data_format": {"s": "TkhXQw=="}, "strides": {"list": {"i": ["1", "1", "1", "1"]}}, "num_args": {"i": "1"}, "fused_ops": {"list": {"s": ["Qmlhc0FkZA=="]}}, "TArgs": {"list": {"type": ["DT_FLOAT"]}}, "padding": {"s": "U0FNRQ=="}, "use_cudnn_on_gpu": {"b": true}, "leakyrelu_alpha": {"f": 0.2}, "epsilon": {"f": 0.0}, "T": {"type": "DT_FLOAT"}, "explicit_paddings": {"list": {}}, "dilations": {"list": {"i": ["1", "1", "1", "1"]}}}}, {"name": "StatefulPartitionedCall/sequential_2/efficientnet_v2_s2/StatefulPartitionedCall/StatefulPartitionedCall/StatefulPartitionedCall/blocks_5/StatefulPartitionedCall/se/Sigmoid", "op": "Sigmoid", "input": ["StatefulPartitionedCall/sequential_2/efficientnet_v2_s2/StatefulPartitionedCall/StatefulPartitionedCall/StatefulPartitionedCall/blocks_5/StatefulPartitionedCall/se/conv2d/BiasAdd"], "attr": {"_input_shapes": {"list": {"shape": [{"dim": [{"size": "-2"}, {"size": "1"}, {"size": "1"}, {"size": "12"}]}]}}, "T": {"type": "DT_FLOAT"}}}, {"name": "StatefulPartitionedCall/sequential_2/efficientnet_v2_s2/StatefulPartitionedCall/StatefulPartitionedCall/StatefulPartitionedCall/blocks_5/StatefulPartitionedCall/se/mul", "op": "Mul", "input": ["StatefulPartitionedCall/sequential_2/efficientnet_v2_s2/StatefulPartitionedCall/StatefulPartitionedCall/StatefulPartitionedCall/blocks_5/StatefulPartitionedCall/se/conv2d/BiasAdd", "StatefulPartitionedCall/sequential_2/efficientnet_v2_s2/StatefulPartitionedCall/StatefulPartitionedCall/StatefulPartitionedCall/blocks_5/StatefulPartitionedCall/se/Sigmoid"], "attr": {"T": {"type": "DT_FLOAT"}}}, {"name": "StatefulPartitionedCall/sequential_2/efficientnet_v2_s2/StatefulPartitionedCall/StatefulPartitionedCall/StatefulPartitionedCall/blocks_5/StatefulPartitionedCall/se/conv2d_1/BiasAdd", "op": "_FusedConv2D", "input": ["StatefulPartitionedCall/sequential_2/efficientnet_v2_s2/StatefulPartitionedCall/StatefulPartitionedCall/StatefulPartitionedCall/blocks_5/StatefulPartitionedCall/se/mul", "StatefulPartitionedCall/sequential_2/efficientnet_v2_s2/StatefulPartitionedCall/StatefulPartitionedCall/StatefulPartitionedCall/blocks_5/StatefulPartitionedCall/se/conv2d_1/Conv2D/ReadVariableOp", "StatefulPartitionedCall/sequential_2/efficientnet_v2_s2/StatefulPartitionedCall/StatefulPartitionedCall/StatefulPartitionedCall/blocks_5/StatefulPartitionedCall/se/conv2d_1/BiasAdd/ReadVariableOp"], "device": "/device:CPU:0", "attr": {"num_host_args": {"i": "0"}, "data_format": {"s": "TkhXQw=="}, "filter_format": {"s": "SFdJTw=="}, "_input_shapes": {"list": {"shape": [{"dim": [{"size": "-2"}, {"size": "1"}, {"size": "1"}, {"size": "12"}]}, {"dim": [{"size": "1"}, {"size": "1"}, {"size": "12"}, {"size": "192"}]}]}}, "fused_ops": {"list": {"s": ["Qmlhc0FkZA=="]}}, "num_args": {"i": "1"}, "strides": {"list": {"i": ["1", "1", "1", "1"]}}, "TArgs": {"list": {"type": ["DT_FLOAT"]}}, "padding": {"s": "U0FNRQ=="}, "use_cudnn_on_gpu": {"b": true}, "leakyrelu_alpha": {"f": 0.2}, "epsilon": {"f": 0.0}, "T": {"type": "DT_FLOAT"}, "explicit_paddings": {"list": {}}, "dilations": {"list": {"i": ["1", "1", "1", "1"]}}}}, {"name": "StatefulPartitionedCall/sequential_2/efficientnet_v2_s2/StatefulPartitionedCall/StatefulPartitionedCall/StatefulPartitionedCall/blocks_5/StatefulPartitionedCall/se/Sigmoid_1", "op": "Sigmoid", "input": ["StatefulPartitionedCall/sequential_2/efficientnet_v2_s2/StatefulPartitionedCall/StatefulPartitionedCall/StatefulPartitionedCall/blocks_5/StatefulPartitionedCall/se/conv2d_1/BiasAdd"], "attr": {"_input_shapes": {"list": {"shape": [{"dim": [{"size": "-2"}, {"size": "1"}, {"size": "1"}, {"size": "192"}]}]}}, "T": {"type": "DT_FLOAT"}}}, {"name": "StatefulPartitionedCall/sequential_2/efficientnet_v2_s2/StatefulPartitionedCall/StatefulPartitionedCall/StatefulPartitionedCall/blocks_5/StatefulPartitionedCall/se/mul_1", "op": "Mul", "input": ["StatefulPartitionedCall/sequential_2/efficientnet_v2_s2/StatefulPartitionedCall/StatefulPartitionedCall/StatefulPartitionedCall/blocks_5/StatefulPartitionedCall/se/Sigmoid_1", "StatefulPartitionedCall/sequential_2/efficientnet_v2_s2/StatefulPartitionedCall/StatefulPartitionedCall/StatefulPartitionedCall/blocks_5/StatefulPartitionedCall/mul_1"], "attr": {"T": {"type": "DT_FLOAT"}}}, {"name": "StatefulPartitionedCall/sequential_2/efficientnet_v2_s2/StatefulPartitionedCall/StatefulPartitionedCall/StatefulPartitionedCall/blocks_5/StatefulPartitionedCall/tpu_batch_normalization_2/FusedBatchNormV3", "op": "_FusedConv2D", "input": ["StatefulPartitionedCall/sequential_2/efficientnet_v2_s2/StatefulPartitionedCall/StatefulPartitionedCall/StatefulPartitionedCall/blocks_5/StatefulPartitionedCall/se/mul_1", "StatefulPartitionedCall/sequential_2/efficientnet_v2_s2/StatefulPartitionedCall/StatefulPartitionedCall/StatefulPartitionedCall/blocks_5/StatefulPartitionedCall/conv2d_1/Conv2D_weights", "StatefulPartitionedCall/sequential_2/efficientnet_v2_s2/StatefulPartitionedCall/StatefulPartitionedCall/StatefulPartitionedCall/blocks_5/StatefulPartitionedCall/conv2d_1/Conv2D_bn_offset"], "device": "/device:CPU:0", "attr": {"num_host_args": {"i": "0"}, "data_format": {"s": "TkhXQw=="}, "filter_format": {"s": "SFdJTw=="}, "_input_shapes": {"list": {"shape": [{"dim": [{"size": "-2"}, {"size": "14"}, {"size": "14"}, {"size": "192"}]}, {"dim": [{"size": "1"}, {"size": "1"}, {"size": "192"}, {"size": "96"}]}]}}, "fused_ops": {"list": {"s": ["Qmlhc0FkZA=="]}}, "num_args": {"i": "1"}, "strides": {"list": {"i": ["1", "1", "1", "1"]}}, "TArgs": {"list": {"type": ["DT_FLOAT"]}}, "padding": {"s": "U0FNRQ=="}, "use_cudnn_on_gpu": {"b": true}, "leakyrelu_alpha": {"f": 0.2}, "epsilon": {"f": 0.0}, "T": {"type": "DT_FLOAT"}, "explicit_paddings": {"list": {}}, "dilations": {"list": {"i": ["1", "1", "1", "1"]}}}}, {"name": "StatefulPartitionedCall/sequential_2/efficientnet_v2_s2/StatefulPartitionedCall/StatefulPartitionedCall/StatefulPartitionedCall/blocks_6/StatefulPartitionedCall/tpu_batch_normalization/FusedBatchNormV3", "op": "_FusedConv2D", "input": ["StatefulPartitionedCall/sequential_2/efficientnet_v2_s2/StatefulPartitionedCall/StatefulPartitionedCall/StatefulPartitionedCall/blocks_5/StatefulPartitionedCall/tpu_batch_normalization_2/FusedBatchNormV3", "StatefulPartitionedCall/sequential_2/efficientnet_v2_s2/StatefulPartitionedCall/StatefulPartitionedCall/StatefulPartitionedCall/blocks_6/StatefulPartitionedCall/conv2d/Conv2D_weights", "StatefulPartitionedCall/sequential_2/efficientnet_v2_s2/StatefulPartitionedCall/StatefulPartitionedCall/StatefulPartitionedCall/blocks_6/StatefulPartitionedCall/conv2d/Conv2D_bn_offset"], "device": "/device:CPU:0", "attr": {"num_host_args": {"i": "0"}, "data_format": {"s": "TkhXQw=="}, "filter_format": {"s": "SFdJTw=="}, "_input_shapes": {"list": {"shape": [{"dim": [{"size": "-2"}, {"size": "14"}, {"size": "14"}, {"size": "96"}]}, {"dim": [{"size": "1"}, {"size": "1"}, {"size": "96"}, {"size": "384"}]}]}}, "strides": {"list": {"i": ["1", "1", "1", "1"]}}, "num_args": {"i": "1"}, "fused_ops": {"list": {"s": ["Qmlhc0FkZA=="]}}, "TArgs": {"list": {"type": ["DT_FLOAT"]}}, "padding": {"s": "U0FNRQ=="}, "use_cudnn_on_gpu": {"b": true}, "leakyrelu_alpha": {"f": 0.2}, "epsilon": {"f": 0.0}, "T": {"type": "DT_FLOAT"}, "explicit_paddings": {"list": {}}, "dilations": {"list": {"i": ["1", "1", "1", "1"]}}}}, {"name": "StatefulPartitionedCall/sequential_2/efficientnet_v2_s2/StatefulPartitionedCall/StatefulPartitionedCall/StatefulPartitionedCall/blocks_6/StatefulPartitionedCall/Sigmoid", "op": "Sigmoid", "input": ["StatefulPartitionedCall/sequential_2/efficientnet_v2_s2/StatefulPartitionedCall/StatefulPartitionedCall/StatefulPartitionedCall/blocks_6/StatefulPartitionedCall/tpu_batch_normalization/FusedBatchNormV3"], "attr": {"_input_shapes": {"list": {"shape": [{"dim": [{"size": "-2"}, {"size": "14"}, {"size": "14"}, {"size": "384"}]}]}}, "T": {"type": "DT_FLOAT"}}}, {"name": "StatefulPartitionedCall/sequential_2/efficientnet_v2_s2/StatefulPartitionedCall/StatefulPartitionedCall/StatefulPartitionedCall/blocks_6/StatefulPartitionedCall/mul", "op": "Mul", "input": ["StatefulPartitionedCall/sequential_2/efficientnet_v2_s2/StatefulPartitionedCall/StatefulPartitionedCall/StatefulPartitionedCall/blocks_6/StatefulPartitionedCall/tpu_batch_normalization/FusedBatchNormV3", "StatefulPartitionedCall/sequential_2/efficientnet_v2_s2/StatefulPartitionedCall/StatefulPartitionedCall/StatefulPartitionedCall/blocks_6/StatefulPartitionedCall/Sigmoid"], "attr": {"T": {"type": "DT_FLOAT"}}}, {"name": "StatefulPartitionedCall/sequential_2/efficientnet_v2_s2/StatefulPartitionedCall/StatefulPartitionedCall/StatefulPartitionedCall/blocks_6/StatefulPartitionedCall/depthwise_conv2d/depthwise", "op": "FusedDepthwiseConv2dNative", "input": ["StatefulPartitionedCall/sequential_2/efficientnet_v2_s2/StatefulPartitionedCall/StatefulPartitionedCall/StatefulPartitionedCall/blocks_6/StatefulPartitionedCall/mul", "StatefulPartitionedCall/sequential_2/efficientnet_v2_s2/StatefulPartitionedCall/StatefulPartitionedCall/StatefulPartitionedCall/blocks_6/StatefulPartitionedCall/depthwise_conv2d/depthwise_weights", "StatefulPartitionedCall/sequential_2/efficientnet_v2_s2/StatefulPartitionedCall/StatefulPartitionedCall/StatefulPartitionedCall/blocks_6/StatefulPartitionedCall/depthwise_conv2d/depthwise_bn_offset"], "attr": {"padding": {"s": "U0FNRQ=="}, "_input_shapes": {"list": {"shape": [{"dim": [{"size": "-2"}, {"size": "14"}, {"size": "14"}, {"size": "384"}]}, {"dim": [{"size": "3"}, {"size": "3"}, {"size": "384"}, {"size": "1"}]}]}}, "data_format": {"s": "TkhXQw=="}, "strides": {"list": {"i": ["1", "1", "1", "1"]}}, "num_args": {"i": "1"}, "fused_ops": {"list": {"s": ["Qmlhc0FkZA=="]}}, "T": {"type": "DT_FLOAT"}, "explicit_paddings": {"list": {}}, "dilations": {"list": {"i": ["1", "1", "1", "1"]}}}}, {"name": "StatefulPartitionedCall/sequential_2/efficientnet_v2_s2/StatefulPartitionedCall/StatefulPartitionedCall/StatefulPartitionedCall/blocks_6/StatefulPartitionedCall/Sigmoid_1", "op": "Sigmoid", "input": ["StatefulPartitionedCall/sequential_2/efficientnet_v2_s2/StatefulPartitionedCall/StatefulPartitionedCall/StatefulPartitionedCall/blocks_6/StatefulPartitionedCall/depthwise_conv2d/depthwise"], "attr": {"_input_shapes": {"list": {"shape": [{"dim": [{"size": "-2"}, {"size": "14"}, {"size": "14"}, {"size": "384"}]}]}}, "T": {"type": "DT_FLOAT"}}}, {"name": "StatefulPartitionedCall/sequential_2/efficientnet_v2_s2/StatefulPartitionedCall/StatefulPartitionedCall/StatefulPartitionedCall/blocks_6/StatefulPartitionedCall/mul_1", "op": "Mul", "input": ["StatefulPartitionedCall/sequential_2/efficientnet_v2_s2/StatefulPartitionedCall/StatefulPartitionedCall/StatefulPartitionedCall/blocks_6/StatefulPartitionedCall/depthwise_conv2d/depthwise", "StatefulPartitionedCall/sequential_2/efficientnet_v2_s2/StatefulPartitionedCall/StatefulPartitionedCall/StatefulPartitionedCall/blocks_6/StatefulPartitionedCall/Sigmoid_1"], "attr": {"T": {"type": "DT_FLOAT"}}}, {"name": "StatefulPartitionedCall/sequential_2/efficientnet_v2_s2/StatefulPartitionedCall/StatefulPartitionedCall/StatefulPartitionedCall/blocks_6/StatefulPartitionedCall/se/Mean", "op": "Mean", "input": ["StatefulPartitionedCall/sequential_2/efficientnet_v2_s2/StatefulPartitionedCall/StatefulPartitionedCall/StatefulPartitionedCall/blocks_6/StatefulPartitionedCall/mul_1", "StatefulPartitionedCall/sequential_2/efficientnet_v2_s2/StatefulPartitionedCall/StatefulPartitionedCall/StatefulPartitionedCall/blocks_6/StatefulPartitionedCall/se/Mean/reduction_indices"], "attr": {"T": {"type": "DT_FLOAT"}, "Tidx": {"type": "DT_INT32"}, "keep_dims": {"b": true}}}, {"name": "StatefulPartitionedCall/sequential_2/efficientnet_v2_s2/StatefulPartitionedCall/StatefulPartitionedCall/StatefulPartitionedCall/blocks_6/StatefulPartitionedCall/se/conv2d/BiasAdd", "op": "_FusedConv2D", "input": ["StatefulPartitionedCall/sequential_2/efficientnet_v2_s2/StatefulPartitionedCall/StatefulPartitionedCall/StatefulPartitionedCall/blocks_6/StatefulPartitionedCall/se/Mean", "StatefulPartitionedCall/sequential_2/efficientnet_v2_s2/StatefulPartitionedCall/StatefulPartitionedCall/StatefulPartitionedCall/blocks_6/StatefulPartitionedCall/se/conv2d/Conv2D/ReadVariableOp", "StatefulPartitionedCall/sequential_2/efficientnet_v2_s2/StatefulPartitionedCall/StatefulPartitionedCall/StatefulPartitionedCall/blocks_6/StatefulPartitionedCall/se/conv2d/BiasAdd/ReadVariableOp"], "device": "/device:CPU:0", "attr": {"num_host_args": {"i": "0"}, "_input_shapes": {"list": {"shape": [{"dim": [{"size": "-2"}, {"size": "1"}, {"size": "1"}, {"size": "384"}]}, {"dim": [{"size": "1"}, {"size": "1"}, {"size": "384"}, {"size": "24"}]}]}}, "filter_format": {"s": "SFdJTw=="}, "data_format": {"s": "TkhXQw=="}, "strides": {"list": {"i": ["1", "1", "1", "1"]}}, "num_args": {"i": "1"}, "fused_ops": {"list": {"s": ["Qmlhc0FkZA=="]}}, "TArgs": {"list": {"type": ["DT_FLOAT"]}}, "padding": {"s": "U0FNRQ=="}, "use_cudnn_on_gpu": {"b": true}, "leakyrelu_alpha": {"f": 0.2}, "epsilon": {"f": 0.0}, "T": {"type": "DT_FLOAT"}, "explicit_paddings": {"list": {}}, "dilations": {"list": {"i": ["1", "1", "1", "1"]}}}}, {"name": "StatefulPartitionedCall/sequential_2/efficientnet_v2_s2/StatefulPartitionedCall/StatefulPartitionedCall/StatefulPartitionedCall/blocks_6/StatefulPartitionedCall/se/Sigmoid", "op": "Sigmoid", "input": ["StatefulPartitionedCall/sequential_2/efficientnet_v2_s2/StatefulPartitionedCall/StatefulPartitionedCall/StatefulPartitionedCall/blocks_6/StatefulPartitionedCall/se/conv2d/BiasAdd"], "attr": {"_input_shapes": {"list": {"shape": [{"dim": [{"size": "-2"}, {"size": "1"}, {"size": "1"}, {"size": "24"}]}]}}, "T": {"type": "DT_FLOAT"}}}, {"name": "StatefulPartitionedCall/sequential_2/efficientnet_v2_s2/StatefulPartitionedCall/StatefulPartitionedCall/StatefulPartitionedCall/blocks_6/StatefulPartitionedCall/se/mul", "op": "Mul", "input": ["StatefulPartitionedCall/sequential_2/efficientnet_v2_s2/StatefulPartitionedCall/StatefulPartitionedCall/StatefulPartitionedCall/blocks_6/StatefulPartitionedCall/se/conv2d/BiasAdd", "StatefulPartitionedCall/sequential_2/efficientnet_v2_s2/StatefulPartitionedCall/StatefulPartitionedCall/StatefulPartitionedCall/blocks_6/StatefulPartitionedCall/se/Sigmoid"], "attr": {"T": {"type": "DT_FLOAT"}}}, {"name": "StatefulPartitionedCall/sequential_2/efficientnet_v2_s2/StatefulPartitionedCall/StatefulPartitionedCall/StatefulPartitionedCall/blocks_6/StatefulPartitionedCall/se/conv2d_1/BiasAdd", "op": "_FusedConv2D", "input": ["StatefulPartitionedCall/sequential_2/efficientnet_v2_s2/StatefulPartitionedCall/StatefulPartitionedCall/StatefulPartitionedCall/blocks_6/StatefulPartitionedCall/se/mul", "StatefulPartitionedCall/sequential_2/efficientnet_v2_s2/StatefulPartitionedCall/StatefulPartitionedCall/StatefulPartitionedCall/blocks_6/StatefulPartitionedCall/se/conv2d_1/Conv2D/ReadVariableOp", "StatefulPartitionedCall/sequential_2/efficientnet_v2_s2/StatefulPartitionedCall/StatefulPartitionedCall/StatefulPartitionedCall/blocks_6/StatefulPartitionedCall/se/conv2d_1/BiasAdd/ReadVariableOp"], "device": "/device:CPU:0", "attr": {"num_host_args": {"i": "0"}, "_input_shapes": {"list": {"shape": [{"dim": [{"size": "-2"}, {"size": "1"}, {"size": "1"}, {"size": "24"}]}, {"dim": [{"size": "1"}, {"size": "1"}, {"size": "24"}, {"size": "384"}]}]}}, "filter_format": {"s": "SFdJTw=="}, "data_format": {"s": "TkhXQw=="}, "strides": {"list": {"i": ["1", "1", "1", "1"]}}, "num_args": {"i": "1"}, "fused_ops": {"list": {"s": ["Qmlhc0FkZA=="]}}, "TArgs": {"list": {"type": ["DT_FLOAT"]}}, "padding": {"s": "U0FNRQ=="}, "use_cudnn_on_gpu": {"b": true}, "leakyrelu_alpha": {"f": 0.2}, "epsilon": {"f": 0.0}, "T": {"type": "DT_FLOAT"}, "explicit_paddings": {"list": {}}, "dilations": {"list": {"i": ["1", "1", "1", "1"]}}}}, {"name": "StatefulPartitionedCall/sequential_2/efficientnet_v2_s2/StatefulPartitionedCall/StatefulPartitionedCall/StatefulPartitionedCall/blocks_6/StatefulPartitionedCall/se/Sigmoid_1", "op": "Sigmoid", "input": ["StatefulPartitionedCall/sequential_2/efficientnet_v2_s2/StatefulPartitionedCall/StatefulPartitionedCall/StatefulPartitionedCall/blocks_6/StatefulPartitionedCall/se/conv2d_1/BiasAdd"], "attr": {"_input_shapes": {"list": {"shape": [{"dim": [{"size": "-2"}, {"size": "1"}, {"size": "1"}, {"size": "384"}]}]}}, "T": {"type": "DT_FLOAT"}}}, {"name": "StatefulPartitionedCall/sequential_2/efficientnet_v2_s2/StatefulPartitionedCall/StatefulPartitionedCall/StatefulPartitionedCall/blocks_6/StatefulPartitionedCall/se/mul_1", "op": "Mul", "input": ["StatefulPartitionedCall/sequential_2/efficientnet_v2_s2/StatefulPartitionedCall/StatefulPartitionedCall/StatefulPartitionedCall/blocks_6/StatefulPartitionedCall/se/Sigmoid_1", "StatefulPartitionedCall/sequential_2/efficientnet_v2_s2/StatefulPartitionedCall/StatefulPartitionedCall/StatefulPartitionedCall/blocks_6/StatefulPartitionedCall/mul_1"], "attr": {"T": {"type": "DT_FLOAT"}}}, {"name": "StatefulPartitionedCall/sequential_2/efficientnet_v2_s2/StatefulPartitionedCall/StatefulPartitionedCall/StatefulPartitionedCall/blocks_6/StatefulPartitionedCall/tpu_batch_normalization_2/FusedBatchNormV3", "op": "_FusedConv2D", "input": ["StatefulPartitionedCall/sequential_2/efficientnet_v2_s2/StatefulPartitionedCall/StatefulPartitionedCall/StatefulPartitionedCall/blocks_6/StatefulPartitionedCall/se/mul_1", "StatefulPartitionedCall/sequential_2/efficientnet_v2_s2/StatefulPartitionedCall/StatefulPartitionedCall/StatefulPartitionedCall/blocks_6/StatefulPartitionedCall/conv2d_1/Conv2D_weights", "StatefulPartitionedCall/sequential_2/efficientnet_v2_s2/StatefulPartitionedCall/StatefulPartitionedCall/StatefulPartitionedCall/blocks_6/StatefulPartitionedCall/conv2d_1/Conv2D_bn_offset"], "device": "/device:CPU:0", "attr": {"num_host_args": {"i": "0"}, "_input_shapes": {"list": {"shape": [{"dim": [{"size": "-2"}, {"size": "14"}, {"size": "14"}, {"size": "384"}]}, {"dim": [{"size": "1"}, {"size": "1"}, {"size": "384"}, {"size": "96"}]}]}}, "filter_format": {"s": "SFdJTw=="}, "data_format": {"s": "TkhXQw=="}, "strides": {"list": {"i": ["1", "1", "1", "1"]}}, "num_args": {"i": "1"}, "fused_ops": {"list": {"s": ["Qmlhc0FkZA=="]}}, "TArgs": {"list": {"type": ["DT_FLOAT"]}}, "padding": {"s": "U0FNRQ=="}, "use_cudnn_on_gpu": {"b": true}, "leakyrelu_alpha": {"f": 0.2}, "epsilon": {"f": 0.0}, "T": {"type": "DT_FLOAT"}, "explicit_paddings": {"list": {}}, "dilations": {"list": {"i": ["1", "1", "1", "1"]}}}}, {"name": "StatefulPartitionedCall/sequential_2/efficientnet_v2_s2/StatefulPartitionedCall/StatefulPartitionedCall/StatefulPartitionedCall/blocks_6/StatefulPartitionedCall/Add", "op": "AddV2", "input": ["StatefulPartitionedCall/sequential_2/efficientnet_v2_s2/StatefulPartitionedCall/StatefulPartitionedCall/StatefulPartitionedCall/blocks_6/StatefulPartitionedCall/tpu_batch_normalization_2/FusedBatchNormV3", "StatefulPartitionedCall/sequential_2/efficientnet_v2_s2/StatefulPartitionedCall/StatefulPartitionedCall/StatefulPartitionedCall/blocks_5/StatefulPartitionedCall/tpu_batch_normalization_2/FusedBatchNormV3"], "attr": {"T": {"type": "DT_FLOAT"}}}, {"name": "StatefulPartitionedCall/sequential_2/efficientnet_v2_s2/StatefulPartitionedCall/StatefulPartitionedCall/StatefulPartitionedCall/blocks_7/StatefulPartitionedCall/tpu_batch_normalization/FusedBatchNormV3", "op": "_FusedConv2D", "input": ["StatefulPartitionedCall/sequential_2/efficientnet_v2_s2/StatefulPartitionedCall/StatefulPartitionedCall/StatefulPartitionedCall/blocks_6/StatefulPartitionedCall/Add", "StatefulPartitionedCall/sequential_2/efficientnet_v2_s2/StatefulPartitionedCall/StatefulPartitionedCall/StatefulPartitionedCall/blocks_7/StatefulPartitionedCall/conv2d/Conv2D_weights", "StatefulPartitionedCall/sequential_2/efficientnet_v2_s2/StatefulPartitionedCall/StatefulPartitionedCall/StatefulPartitionedCall/blocks_7/StatefulPartitionedCall/conv2d/Conv2D_bn_offset"], "device": "/device:CPU:0", "attr": {"num_host_args": {"i": "0"}, "_input_shapes": {"list": {"shape": [{"dim": [{"size": "-2"}, {"size": "14"}, {"size": "14"}, {"size": "96"}]}, {"dim": [{"size": "1"}, {"size": "1"}, {"size": "96"}, {"size": "384"}]}]}}, "filter_format": {"s": "SFdJTw=="}, "data_format": {"s": "TkhXQw=="}, "strides": {"list": {"i": ["1", "1", "1", "1"]}}, "num_args": {"i": "1"}, "fused_ops": {"list": {"s": ["Qmlhc0FkZA=="]}}, "TArgs": {"list": {"type": ["DT_FLOAT"]}}, "padding": {"s": "U0FNRQ=="}, "use_cudnn_on_gpu": {"b": true}, "leakyrelu_alpha": {"f": 0.2}, "epsilon": {"f": 0.0}, "T": {"type": "DT_FLOAT"}, "explicit_paddings": {"list": {}}, "dilations": {"list": {"i": ["1", "1", "1", "1"]}}}}, {"name": "StatefulPartitionedCall/sequential_2/efficientnet_v2_s2/StatefulPartitionedCall/StatefulPartitionedCall/StatefulPartitionedCall/blocks_7/StatefulPartitionedCall/Sigmoid", "op": "Sigmoid", "input": ["StatefulPartitionedCall/sequential_2/efficientnet_v2_s2/StatefulPartitionedCall/StatefulPartitionedCall/StatefulPartitionedCall/blocks_7/StatefulPartitionedCall/tpu_batch_normalization/FusedBatchNormV3"], "attr": {"_input_shapes": {"list": {"shape": [{"dim": [{"size": "-2"}, {"size": "14"}, {"size": "14"}, {"size": "384"}]}]}}, "T": {"type": "DT_FLOAT"}}}, {"name": "StatefulPartitionedCall/sequential_2/efficientnet_v2_s2/StatefulPartitionedCall/StatefulPartitionedCall/StatefulPartitionedCall/blocks_7/StatefulPartitionedCall/mul", "op": "Mul", "input": ["StatefulPartitionedCall/sequential_2/efficientnet_v2_s2/StatefulPartitionedCall/StatefulPartitionedCall/StatefulPartitionedCall/blocks_7/StatefulPartitionedCall/tpu_batch_normalization/FusedBatchNormV3", "StatefulPartitionedCall/sequential_2/efficientnet_v2_s2/StatefulPartitionedCall/StatefulPartitionedCall/StatefulPartitionedCall/blocks_7/StatefulPartitionedCall/Sigmoid"], "attr": {"T": {"type": "DT_FLOAT"}}}, {"name": "StatefulPartitionedCall/sequential_2/efficientnet_v2_s2/StatefulPartitionedCall/StatefulPartitionedCall/StatefulPartitionedCall/blocks_7/StatefulPartitionedCall/depthwise_conv2d/depthwise", "op": "FusedDepthwiseConv2dNative", "input": ["StatefulPartitionedCall/sequential_2/efficientnet_v2_s2/StatefulPartitionedCall/StatefulPartitionedCall/StatefulPartitionedCall/blocks_7/StatefulPartitionedCall/mul", "StatefulPartitionedCall/sequential_2/efficientnet_v2_s2/StatefulPartitionedCall/StatefulPartitionedCall/StatefulPartitionedCall/blocks_7/StatefulPartitionedCall/depthwise_conv2d/depthwise_weights", "StatefulPartitionedCall/sequential_2/efficientnet_v2_s2/StatefulPartitionedCall/StatefulPartitionedCall/StatefulPartitionedCall/blocks_7/StatefulPartitionedCall/depthwise_conv2d/depthwise_bn_offset"], "attr": {"padding": {"s": "U0FNRQ=="}, "data_format": {"s": "TkhXQw=="}, "_input_shapes": {"list": {"shape": [{"dim": [{"size": "-2"}, {"size": "14"}, {"size": "14"}, {"size": "384"}]}, {"dim": [{"size": "3"}, {"size": "3"}, {"size": "384"}, {"size": "1"}]}]}}, "strides": {"list": {"i": ["1", "1", "1", "1"]}}, "num_args": {"i": "1"}, "fused_ops": {"list": {"s": ["Qmlhc0FkZA=="]}}, "T": {"type": "DT_FLOAT"}, "explicit_paddings": {"list": {}}, "dilations": {"list": {"i": ["1", "1", "1", "1"]}}}}, {"name": "StatefulPartitionedCall/sequential_2/efficientnet_v2_s2/StatefulPartitionedCall/StatefulPartitionedCall/StatefulPartitionedCall/blocks_7/StatefulPartitionedCall/Sigmoid_1", "op": "Sigmoid", "input": ["StatefulPartitionedCall/sequential_2/efficientnet_v2_s2/StatefulPartitionedCall/StatefulPartitionedCall/StatefulPartitionedCall/blocks_7/StatefulPartitionedCall/depthwise_conv2d/depthwise"], "attr": {"_input_shapes": {"list": {"shape": [{"dim": [{"size": "-2"}, {"size": "14"}, {"size": "14"}, {"size": "384"}]}]}}, "T": {"type": "DT_FLOAT"}}}, {"name": "StatefulPartitionedCall/sequential_2/efficientnet_v2_s2/StatefulPartitionedCall/StatefulPartitionedCall/StatefulPartitionedCall/blocks_7/StatefulPartitionedCall/mul_1", "op": "Mul", "input": ["StatefulPartitionedCall/sequential_2/efficientnet_v2_s2/StatefulPartitionedCall/StatefulPartitionedCall/StatefulPartitionedCall/blocks_7/StatefulPartitionedCall/depthwise_conv2d/depthwise", "StatefulPartitionedCall/sequential_2/efficientnet_v2_s2/StatefulPartitionedCall/StatefulPartitionedCall/StatefulPartitionedCall/blocks_7/StatefulPartitionedCall/Sigmoid_1"], "attr": {"T": {"type": "DT_FLOAT"}}}, {"name": "StatefulPartitionedCall/sequential_2/efficientnet_v2_s2/StatefulPartitionedCall/StatefulPartitionedCall/StatefulPartitionedCall/blocks_7/StatefulPartitionedCall/se/Mean", "op": "Mean", "input": ["StatefulPartitionedCall/sequential_2/efficientnet_v2_s2/StatefulPartitionedCall/StatefulPartitionedCall/StatefulPartitionedCall/blocks_7/StatefulPartitionedCall/mul_1", "StatefulPartitionedCall/sequential_2/efficientnet_v2_s2/StatefulPartitionedCall/StatefulPartitionedCall/StatefulPartitionedCall/blocks_7/StatefulPartitionedCall/se/Mean/reduction_indices"], "attr": {"Tidx": {"type": "DT_INT32"}, "T": {"type": "DT_FLOAT"}, "keep_dims": {"b": true}}}, {"name": "StatefulPartitionedCall/sequential_2/efficientnet_v2_s2/StatefulPartitionedCall/StatefulPartitionedCall/StatefulPartitionedCall/blocks_7/StatefulPartitionedCall/se/conv2d/BiasAdd", "op": "_FusedConv2D", "input": ["StatefulPartitionedCall/sequential_2/efficientnet_v2_s2/StatefulPartitionedCall/StatefulPartitionedCall/StatefulPartitionedCall/blocks_7/StatefulPartitionedCall/se/Mean", "StatefulPartitionedCall/sequential_2/efficientnet_v2_s2/StatefulPartitionedCall/StatefulPartitionedCall/StatefulPartitionedCall/blocks_7/StatefulPartitionedCall/se/conv2d/Conv2D/ReadVariableOp", "StatefulPartitionedCall/sequential_2/efficientnet_v2_s2/StatefulPartitionedCall/StatefulPartitionedCall/StatefulPartitionedCall/blocks_7/StatefulPartitionedCall/se/conv2d/BiasAdd/ReadVariableOp"], "device": "/device:CPU:0", "attr": {"num_host_args": {"i": "0"}, "_input_shapes": {"list": {"shape": [{"dim": [{"size": "-2"}, {"size": "1"}, {"size": "1"}, {"size": "384"}]}, {"dim": [{"size": "1"}, {"size": "1"}, {"size": "384"}, {"size": "24"}]}]}}, "filter_format": {"s": "SFdJTw=="}, "data_format": {"s": "TkhXQw=="}, "strides": {"list": {"i": ["1", "1", "1", "1"]}}, "num_args": {"i": "1"}, "fused_ops": {"list": {"s": ["Qmlhc0FkZA=="]}}, "TArgs": {"list": {"type": ["DT_FLOAT"]}}, "padding": {"s": "U0FNRQ=="}, "use_cudnn_on_gpu": {"b": true}, "leakyrelu_alpha": {"f": 0.2}, "epsilon": {"f": 0.0}, "T": {"type": "DT_FLOAT"}, "explicit_paddings": {"list": {}}, "dilations": {"list": {"i": ["1", "1", "1", "1"]}}}}, {"name": "StatefulPartitionedCall/sequential_2/efficientnet_v2_s2/StatefulPartitionedCall/StatefulPartitionedCall/StatefulPartitionedCall/blocks_7/StatefulPartitionedCall/se/Sigmoid", "op": "Sigmoid", "input": ["StatefulPartitionedCall/sequential_2/efficientnet_v2_s2/StatefulPartitionedCall/StatefulPartitionedCall/StatefulPartitionedCall/blocks_7/StatefulPartitionedCall/se/conv2d/BiasAdd"], "attr": {"_input_shapes": {"list": {"shape": [{"dim": [{"size": "-2"}, {"size": "1"}, {"size": "1"}, {"size": "24"}]}]}}, "T": {"type": "DT_FLOAT"}}}, {"name": "StatefulPartitionedCall/sequential_2/efficientnet_v2_s2/StatefulPartitionedCall/StatefulPartitionedCall/StatefulPartitionedCall/blocks_7/StatefulPartitionedCall/se/mul", "op": "Mul", "input": ["StatefulPartitionedCall/sequential_2/efficientnet_v2_s2/StatefulPartitionedCall/StatefulPartitionedCall/StatefulPartitionedCall/blocks_7/StatefulPartitionedCall/se/conv2d/BiasAdd", "StatefulPartitionedCall/sequential_2/efficientnet_v2_s2/StatefulPartitionedCall/StatefulPartitionedCall/StatefulPartitionedCall/blocks_7/StatefulPartitionedCall/se/Sigmoid"], "attr": {"T": {"type": "DT_FLOAT"}}}, {"name": "StatefulPartitionedCall/sequential_2/efficientnet_v2_s2/StatefulPartitionedCall/StatefulPartitionedCall/StatefulPartitionedCall/blocks_7/StatefulPartitionedCall/se/conv2d_1/BiasAdd", "op": "_FusedConv2D", "input": ["StatefulPartitionedCall/sequential_2/efficientnet_v2_s2/StatefulPartitionedCall/StatefulPartitionedCall/StatefulPartitionedCall/blocks_7/StatefulPartitionedCall/se/mul", "StatefulPartitionedCall/sequential_2/efficientnet_v2_s2/StatefulPartitionedCall/StatefulPartitionedCall/StatefulPartitionedCall/blocks_7/StatefulPartitionedCall/se/conv2d_1/Conv2D/ReadVariableOp", "StatefulPartitionedCall/sequential_2/efficientnet_v2_s2/StatefulPartitionedCall/StatefulPartitionedCall/StatefulPartitionedCall/blocks_7/StatefulPartitionedCall/se/conv2d_1/BiasAdd/ReadVariableOp"], "device": "/device:CPU:0", "attr": {"num_host_args": {"i": "0"}, "_input_shapes": {"list": {"shape": [{"dim": [{"size": "-2"}, {"size": "1"}, {"size": "1"}, {"size": "24"}]}, {"dim": [{"size": "1"}, {"size": "1"}, {"size": "24"}, {"size": "384"}]}]}}, "filter_format": {"s": "SFdJTw=="}, "data_format": {"s": "TkhXQw=="}, "strides": {"list": {"i": ["1", "1", "1", "1"]}}, "num_args": {"i": "1"}, "fused_ops": {"list": {"s": ["Qmlhc0FkZA=="]}}, "TArgs": {"list": {"type": ["DT_FLOAT"]}}, "padding": {"s": "U0FNRQ=="}, "use_cudnn_on_gpu": {"b": true}, "leakyrelu_alpha": {"f": 0.2}, "epsilon": {"f": 0.0}, "T": {"type": "DT_FLOAT"}, "explicit_paddings": {"list": {}}, "dilations": {"list": {"i": ["1", "1", "1", "1"]}}}}, {"name": "StatefulPartitionedCall/sequential_2/efficientnet_v2_s2/StatefulPartitionedCall/StatefulPartitionedCall/StatefulPartitionedCall/blocks_7/StatefulPartitionedCall/se/Sigmoid_1", "op": "Sigmoid", "input": ["StatefulPartitionedCall/sequential_2/efficientnet_v2_s2/StatefulPartitionedCall/StatefulPartitionedCall/StatefulPartitionedCall/blocks_7/StatefulPartitionedCall/se/conv2d_1/BiasAdd"], "attr": {"_input_shapes": {"list": {"shape": [{"dim": [{"size": "-2"}, {"size": "1"}, {"size": "1"}, {"size": "384"}]}]}}, "T": {"type": "DT_FLOAT"}}}, {"name": "StatefulPartitionedCall/sequential_2/efficientnet_v2_s2/StatefulPartitionedCall/StatefulPartitionedCall/StatefulPartitionedCall/blocks_7/StatefulPartitionedCall/se/mul_1", "op": "Mul", "input": ["StatefulPartitionedCall/sequential_2/efficientnet_v2_s2/StatefulPartitionedCall/StatefulPartitionedCall/StatefulPartitionedCall/blocks_7/StatefulPartitionedCall/se/Sigmoid_1", "StatefulPartitionedCall/sequential_2/efficientnet_v2_s2/StatefulPartitionedCall/StatefulPartitionedCall/StatefulPartitionedCall/blocks_7/StatefulPartitionedCall/mul_1"], "attr": {"T": {"type": "DT_FLOAT"}}}, {"name": "StatefulPartitionedCall/sequential_2/efficientnet_v2_s2/StatefulPartitionedCall/StatefulPartitionedCall/StatefulPartitionedCall/blocks_7/StatefulPartitionedCall/tpu_batch_normalization_2/FusedBatchNormV3", "op": "_FusedConv2D", "input": ["StatefulPartitionedCall/sequential_2/efficientnet_v2_s2/StatefulPartitionedCall/StatefulPartitionedCall/StatefulPartitionedCall/blocks_7/StatefulPartitionedCall/se/mul_1", "StatefulPartitionedCall/sequential_2/efficientnet_v2_s2/StatefulPartitionedCall/StatefulPartitionedCall/StatefulPartitionedCall/blocks_7/StatefulPartitionedCall/conv2d_1/Conv2D_weights", "StatefulPartitionedCall/sequential_2/efficientnet_v2_s2/StatefulPartitionedCall/StatefulPartitionedCall/StatefulPartitionedCall/blocks_7/StatefulPartitionedCall/conv2d_1/Conv2D_bn_offset"], "device": "/device:CPU:0", "attr": {"num_host_args": {"i": "0"}, "data_format": {"s": "TkhXQw=="}, "filter_format": {"s": "SFdJTw=="}, "_input_shapes": {"list": {"shape": [{"dim": [{"size": "-2"}, {"size": "14"}, {"size": "14"}, {"size": "384"}]}, {"dim": [{"size": "1"}, {"size": "1"}, {"size": "384"}, {"size": "96"}]}]}}, "strides": {"list": {"i": ["1", "1", "1", "1"]}}, "num_args": {"i": "1"}, "fused_ops": {"list": {"s": ["Qmlhc0FkZA=="]}}, "TArgs": {"list": {"type": ["DT_FLOAT"]}}, "padding": {"s": "U0FNRQ=="}, "use_cudnn_on_gpu": {"b": true}, "leakyrelu_alpha": {"f": 0.2}, "epsilon": {"f": 0.0}, "T": {"type": "DT_FLOAT"}, "explicit_paddings": {"list": {}}, "dilations": {"list": {"i": ["1", "1", "1", "1"]}}}}, {"name": "StatefulPartitionedCall/sequential_2/efficientnet_v2_s2/StatefulPartitionedCall/StatefulPartitionedCall/StatefulPartitionedCall/blocks_7/StatefulPartitionedCall/Add", "op": "AddV2", "input": ["StatefulPartitionedCall/sequential_2/efficientnet_v2_s2/StatefulPartitionedCall/StatefulPartitionedCall/StatefulPartitionedCall/blocks_7/StatefulPartitionedCall/tpu_batch_normalization_2/FusedBatchNormV3", "StatefulPartitionedCall/sequential_2/efficientnet_v2_s2/StatefulPartitionedCall/StatefulPartitionedCall/StatefulPartitionedCall/blocks_6/StatefulPartitionedCall/Add"], "attr": {"T": {"type": "DT_FLOAT"}}}, {"name": "StatefulPartitionedCall/sequential_2/efficientnet_v2_s2/StatefulPartitionedCall/StatefulPartitionedCall/StatefulPartitionedCall/blocks_8/StatefulPartitionedCall/tpu_batch_normalization/FusedBatchNormV3", "op": "_FusedConv2D", "input": ["StatefulPartitionedCall/sequential_2/efficientnet_v2_s2/StatefulPartitionedCall/StatefulPartitionedCall/StatefulPartitionedCall/blocks_7/StatefulPartitionedCall/Add", "StatefulPartitionedCall/sequential_2/efficientnet_v2_s2/StatefulPartitionedCall/StatefulPartitionedCall/StatefulPartitionedCall/blocks_8/StatefulPartitionedCall/conv2d/Conv2D_weights", "StatefulPartitionedCall/sequential_2/efficientnet_v2_s2/StatefulPartitionedCall/StatefulPartitionedCall/StatefulPartitionedCall/blocks_8/StatefulPartitionedCall/conv2d/Conv2D_bn_offset"], "device": "/device:CPU:0", "attr": {"num_host_args": {"i": "0"}, "_input_shapes": {"list": {"shape": [{"dim": [{"size": "-2"}, {"size": "14"}, {"size": "14"}, {"size": "96"}]}, {"dim": [{"size": "1"}, {"size": "1"}, {"size": "96"}, {"size": "576"}]}]}}, "filter_format": {"s": "SFdJTw=="}, "data_format": {"s": "TkhXQw=="}, "fused_ops": {"list": {"s": ["Qmlhc0FkZA=="]}}, "num_args": {"i": "1"}, "strides": {"list": {"i": ["1", "1", "1", "1"]}}, "TArgs": {"list": {"type": ["DT_FLOAT"]}}, "padding": {"s": "U0FNRQ=="}, "use_cudnn_on_gpu": {"b": true}, "leakyrelu_alpha": {"f": 0.2}, "epsilon": {"f": 0.0}, "T": {"type": "DT_FLOAT"}, "explicit_paddings": {"list": {}}, "dilations": {"list": {"i": ["1", "1", "1", "1"]}}}}, {"name": "StatefulPartitionedCall/sequential_2/efficientnet_v2_s2/StatefulPartitionedCall/StatefulPartitionedCall/StatefulPartitionedCall/blocks_8/StatefulPartitionedCall/Sigmoid", "op": "Sigmoid", "input": ["StatefulPartitionedCall/sequential_2/efficientnet_v2_s2/StatefulPartitionedCall/StatefulPartitionedCall/StatefulPartitionedCall/blocks_8/StatefulPartitionedCall/tpu_batch_normalization/FusedBatchNormV3"], "attr": {"_input_shapes": {"list": {"shape": [{"dim": [{"size": "-2"}, {"size": "14"}, {"size": "14"}, {"size": "576"}]}]}}, "T": {"type": "DT_FLOAT"}}}, {"name": "StatefulPartitionedCall/sequential_2/efficientnet_v2_s2/StatefulPartitionedCall/StatefulPartitionedCall/StatefulPartitionedCall/blocks_8/StatefulPartitionedCall/mul", "op": "Mul", "input": ["StatefulPartitionedCall/sequential_2/efficientnet_v2_s2/StatefulPartitionedCall/StatefulPartitionedCall/StatefulPartitionedCall/blocks_8/StatefulPartitionedCall/tpu_batch_normalization/FusedBatchNormV3", "StatefulPartitionedCall/sequential_2/efficientnet_v2_s2/StatefulPartitionedCall/StatefulPartitionedCall/StatefulPartitionedCall/blocks_8/StatefulPartitionedCall/Sigmoid"], "attr": {"T": {"type": "DT_FLOAT"}}}, {"name": "StatefulPartitionedCall/sequential_2/efficientnet_v2_s2/StatefulPartitionedCall/StatefulPartitionedCall/StatefulPartitionedCall/blocks_8/StatefulPartitionedCall/depthwise_conv2d/depthwise", "op": "FusedDepthwiseConv2dNative", "input": ["StatefulPartitionedCall/sequential_2/efficientnet_v2_s2/StatefulPartitionedCall/StatefulPartitionedCall/StatefulPartitionedCall/blocks_8/StatefulPartitionedCall/mul", "StatefulPartitionedCall/sequential_2/efficientnet_v2_s2/StatefulPartitionedCall/StatefulPartitionedCall/StatefulPartitionedCall/blocks_8/StatefulPartitionedCall/depthwise_conv2d/depthwise_weights", "StatefulPartitionedCall/sequential_2/efficientnet_v2_s2/StatefulPartitionedCall/StatefulPartitionedCall/StatefulPartitionedCall/blocks_8/StatefulPartitionedCall/depthwise_conv2d/depthwise_bn_offset"], "attr": {"padding": {"s": "U0FNRQ=="}, "_input_shapes": {"list": {"shape": [{"dim": [{"size": "-2"}, {"size": "14"}, {"size": "14"}, {"size": "576"}]}, {"dim": [{"size": "3"}, {"size": "3"}, {"size": "576"}, {"size": "1"}]}]}}, "data_format": {"s": "TkhXQw=="}, "strides": {"list": {"i": ["1", "1", "1", "1"]}}, "num_args": {"i": "1"}, "fused_ops"…
{"name": "StatefulPartitionedCall/sequential_2/dense/Softmax", "op": "Softmax", "input": ["StatefulPartitionedCall/sequential_2/dense/BiasAdd"], "attr": {"T": {"type": "DT_FLOAT"}}}, {"name": "Identity", "op": "Identity", "input": ["StatefulPartitionedCall/sequential_2/dense/Softmax"], "attr": {"T": {"type": "DT_FLOAT"}}}], "library": {}, "versions": {"producer": 1766}}, "weightsManifest": [{"paths": ["group1-shard1of7.bin", "group1-shard2of7.bin", "group1-shard3of7.bin", "group1-shard4of7.bin", "group1-shard5of7.bin", "group1-shard6of7.bin", "group1-shard7of7.bin"], "weights": [{"name": "StatefulPartitionedCall/sequential_2/sequential/resizing/resize/size", "shape": [2], "dtype": "int32"}, {"name": "StatefulPartitionedCall/sequential_2/dense/MatMul/ReadVariableOp", "shape": [1000, 80], "dtype": "float32"}, {"name": "StatefulPartitionedCall/sequential_2/dense/BiasAdd/ReadVariableOp", "shape": [80], "dtype": "float32"}, {"name": "StatefulPartitionedCall/sequential_2/efficientnet_v2_s2/StatefulPartitionedCall/StatefulPartitionedCall/StatefulPartitionedCall/stem/StatefulPartitionedCall/conv2d/Conv2D_weights", "shape": [3, 3, 3, 32], "dtype": "float32"}, {"name": "StatefulPartitionedCall/sequential_2/efficientnet_v2_s2/StatefulPartitionedCall/StatefulPartitionedCall/StatefulPartitionedCall/stem/StatefulPartitionedCall/conv2d/Conv2D_bn_offset", "shape": [32], "dtype": "float32"}, {"name": "StatefulPartitionedCall/sequential_2/efficientnet_v2_s2/StatefulPartitionedCall/StatefulPartitionedCall/StatefulPartitionedCall/blocks_0/StatefulPartitionedCall/conv2d/Conv2D_weights", "shape": [3, 3, 32, 16], "dtype": "float32"}, {"name": "StatefulPartitionedCall/sequential_2/efficientnet_v2_s2/StatefulPartitionedCall/StatefulPartitionedCall/StatefulPartitionedCall/blocks_0/StatefulPartitionedCall/conv2d/Conv2D_bn_offset", "shape": [16], "dtype": "float32"}, {"name": "StatefulPartitionedCall/sequential_2/efficientnet_v2_s2/StatefulPartitionedCall/StatefulPartitionedCall/StatefulPartitionedCall/blocks_1/StatefulPartitionedCall/conv2d/Conv2D_weights", "shape": [3, 3, 16, 64], "dtype": "float32"}, {"name": "StatefulPartitionedCall/sequential_2/efficientnet_v2_s2/StatefulPartitionedCall/StatefulPartitionedCall/StatefulPartitionedCall/blocks_1/StatefulPartitionedCall/conv2d/Conv2D_bn_offset", "shape": [64], "dtype": "float32"}, {"name": "StatefulPartitionedCall/sequential_2/efficientnet_v2_s2/StatefulPartitionedCall/StatefulPartitionedCall/StatefulPartitionedCall/blocks_1/StatefulPartitionedCall/conv2d_1/Conv2D_weights", "shape": [1, 1, 64, 32], "dtype": "float32"}, {"name": "StatefulPartitionedCall/sequential_2/efficientnet_v2_s2/StatefulPartitionedCall/StatefulPartitionedCall/StatefulPartitionedCall/head/StatefulPartitionedCall/conv2d/Conv2D_weights", "shape": [1, 1, 192, 1280], "dtype": "float32"}, {"name": "StatefulPartitionedCall/sequential_2/efficientnet_v2_s2/StatefulPartitionedCall/StatefulPartitionedCall/StatefulPartitionedCall/blocks_1/StatefulPartitionedCall/conv2d_1/Conv2D_bn_offset", "shape": [32], "dtype": "float32"}, {"name": "StatefulPartitionedCall/sequential_2/efficientnet_v2_s2/StatefulPartitionedCall/StatefulPartitionedCall/StatefulPartitionedCall/blocks_2/StatefulPartitionedCall/conv2d/Conv2D_weights", "shape": [3, 3, 32, 128], "dtype": "float32"}, {"name": "StatefulPartitionedCall/sequential_2/efficientnet_v2_s2/StatefulPartitionedCall/StatefulPartitionedCall/StatefulPartitionedCall/blocks_2/StatefulPartitionedCall/conv2d/Conv2D_bn_offset", "shape": [128], "dtype": "float32"}, {"name": "StatefulPartitionedCall/sequential_2/efficientnet_v2_s2/StatefulPartitionedCall/StatefulPartitionedCall/StatefulPartitionedCall/blocks_2/StatefulPartitionedCall/conv2d_1/Conv2D_weights", "shape": [1, 1, 128, 32], "dtype": "float32"}, {"name": "StatefulPartitionedCall/sequential_2/efficientnet_v2_s2/StatefulPartitionedCall/StatefulPartitionedCall/StatefulPartitionedCall/blocks_2/StatefulPartitionedCall/conv2d_1/Conv2D_bn_offset", "shape": [32], "dtype": "float32"}, {"name": "StatefulPartitionedCall/sequential_2/efficientnet_v2_s2/StatefulPartitionedCall/StatefulPartitionedCall/StatefulPartitionedCall/blocks_3/StatefulPartitionedCall/conv2d/Conv2D_weights", "shape": [3, 3, 32, 128], "dtype": "float32"}, {"name": "StatefulPartitionedCall/sequential_2/efficientnet_v2_s2/StatefulPartitionedCall/StatefulPartitionedCall/StatefulPartitionedCall/blocks_3/StatefulPartitionedCall/conv2d/Conv2D_bn_offset", "shape": [128], "dtype": "float32"}, {"name": "StatefulPartitionedCall/sequential_2/efficientnet_v2_s2/StatefulPartitionedCall/StatefulPartitionedCall/StatefulPartitionedCall/blocks_3/StatefulPartitionedCall/conv2d_1/Conv2D_weights", "shape": [1, 1, 128, 48], "dtype": "float32"}, {"name": "StatefulPartitionedCall/sequential_2/efficientnet_v2_s2/StatefulPartitionedCall/StatefulPartitionedCall/StatefulPartitionedCall/blocks_18/StatefulPartitionedCall/conv2d_1/Conv2D_weights", "shape": [1, 1, 1152, 192], "dtype": "float32"}, {"name": "StatefulPartitionedCall/sequential_2/efficientnet_v2_s2/StatefulPartitionedCall/StatefulPartitionedCall/StatefulPartitionedCall/blocks_3/StatefulPartitionedCall/conv2d_1/Conv2D_bn_offset", "shape": [48], "dtype": "float32"}, {"name": "StatefulPartitionedCall/sequential_2/efficientnet_v2_s2/StatefulPartitionedCall/StatefulPartitionedCall/StatefulPartitionedCall/blocks_4/StatefulPartitionedCall/conv2d/Conv2D_weights", "shape": [3, 3, 48, 192], "dtype": "float32"}, {"name": "StatefulPartitionedCall/sequential_2/efficientnet_v2_s2/StatefulPartitionedCall/StatefulPartitionedCall/StatefulPartitionedCall/blocks_4/StatefulPartitionedCall/conv2d/Conv2D_bn_offset", "shape": [192], "dtype": "float32"}, {"name": "StatefulPartitionedCall/sequential_2/efficientnet_v2_s2/StatefulPartitionedCall/StatefulPartitionedCall/StatefulPartitionedCall/blocks_4/StatefulPartitionedCall/conv2d_1/Conv2D_weights", "shape": [1, 1, 192, 48], "dtype": "float32"}, {"name": "StatefulPartitionedCall/sequential_2/efficientnet_v2_s2/StatefulPartitionedCall/StatefulPartitionedCall/StatefulPartitionedCall/blocks_18/StatefulPartitionedCall/conv2d_1/Conv2D_bn_offset", "shape": [192], "dtype": "float32"}, {"name": "StatefulPartitionedCall/sequential_2/efficientnet_v2_s2/StatefulPartitionedCall/StatefulPartitionedCall/StatefulPartitionedCall/blocks_4/StatefulPartitionedCall/conv2d_1/Conv2D_bn_offset", "shape": [48], "dtype": "float32"}, {"name": "StatefulPartitionedCall/sequential_2/efficientnet_v2_s2/StatefulPartitionedCall/StatefulPartitionedCall/StatefulPartitionedCall/blocks_5/StatefulPartitionedCall/conv2d/Conv2D_weights", "shape": [1, 1, 48, 192], "dtype": "float32"}, {"name": "StatefulPartitionedCall/sequential_2/efficientnet_v2_s2/StatefulPartitionedCall/StatefulPartitionedCall/StatefulPartitionedCall/blocks_5/StatefulPartitionedCall/conv2d/Conv2D_bn_offset", "shape": [192], "dtype": "float32"}, {"name": "StatefulPartitionedCall/sequential_2/efficientnet_v2_s2/StatefulPartitionedCall/StatefulPartitionedCall/StatefulPartitionedCall/blocks_5/StatefulPartitionedCall/depthwise_conv2d/depthwise_weights", "shape": [3, 3, 192, 1], "dtype": "float32"}, {"name": "StatefulPartitionedCall/sequential_2/efficientnet_v2_s2/StatefulPartitionedCall/StatefulPartitionedCall/StatefulPartitionedCall/blocks_5/StatefulPartitionedCall/depthwise_conv2d/depthwise_bn_offset", "shape": [192], "dtype": "float32"}, {"name": "StatefulPartitionedCall/sequential_2/efficientnet_v2_s2/StatefulPartitionedCall/StatefulPartitionedCall/StatefulPartitionedCall/blocks_19/StatefulPartitionedCall/conv2d/Conv2D_weights", "shape": [1, 1, 192, 1152], "dtype": "float32"}, {"name": "StatefulPartitionedCall/sequential_2/efficientnet_v2_s2/StatefulPartitionedCall/StatefulPartitionedCall/StatefulPartitionedCall/blocks_5/StatefulPartitionedCall/conv2d_1/Conv2D_weights", "shape": [1, 1, 192, 96], "dtype": "float32"}, {"name": "StatefulPartitionedCall/sequential_2/efficientnet_v2_s2/StatefulPartitionedCall/StatefulPartitionedCall/StatefulPartitionedCall/head/StatefulPartitionedCall/conv2d/Conv2D_bn_offset", "shape": [1280], "dtype": "float32"}, {"name": "StatefulPartitionedCall/sequential_2/efficientnet_v2_s2/StatefulPartitionedCall/StatefulPartitionedCall/StatefulPartitionedCall/blocks_5/StatefulPartitionedCall/conv2d_1/Conv2D_bn_offset", "shape": [96], "dtype": "float32"}, {"name": "StatefulPartitionedCall/sequential_2/efficientnet_v2_s2/StatefulPartitionedCall/StatefulPartitionedCall/StatefulPartitionedCall/blocks_6/StatefulPartitionedCall/conv2d/Conv2D_weights", "shape": [1, 1, 96, 384], "dtype": "float32"}, {"name": "StatefulPartitionedCall/sequential_2/efficientnet_v2_s2/StatefulPartitionedCall/StatefulPartitionedCall/StatefulPartitionedCall/blocks_19/StatefulPartitionedCall/conv2d/Conv2D_bn_offset", "shape": [1152], "dtype": "float32"}, {"name": "StatefulPartitionedCall/sequential_2/efficientnet_v2_s2/StatefulPartitionedCall/StatefulPartitionedCall/StatefulPartitionedCall/blocks_6/StatefulPartitionedCall/conv2d/Conv2D_bn_offset", "shape": [384], "dtype": "float32"}, {"name": "StatefulPartitionedCall/sequential_2/efficientnet_v2_s2/StatefulPartitionedCall/StatefulPartitionedCall/StatefulPartitionedCall/blocks_6/StatefulPartitionedCall/depthwise_conv2d/depthwise_weights", "shape": [3, 3, 384, 1], "dtype": "float32"}, {"name": "StatefulPartitionedCall/sequential_2/efficientnet_v2_s2/StatefulPartitionedCall/StatefulPartitionedCall/StatefulPartitionedCall/blocks_6/StatefulPartitionedCall/depthwise_conv2d/depthwise_bn_offset", "shape": [384], "dtype": "float32"}, {"name": "StatefulPartitionedCall/sequential_2/efficientnet_v2_s2/StatefulPartitionedCall/StatefulPartitionedCall/StatefulPartitionedCall/blocks_6/StatefulPartitionedCall/conv2d_1/Conv2D_weights", "shape": [1, 1, 384, 96], "dtype": "float32"}, {"name": "StatefulPartitionedCall/sequential_2/efficientnet_v2_s2/StatefulPartitionedCall/StatefulPartitionedCall/StatefulPartitionedCall/blocks_6/StatefulPartitionedCall/conv2d_1/Conv2D_bn_offset", "shape": [96], "dtype": "float32"}, {"name": "StatefulPartitionedCall/sequential_2/efficientnet_v2_s2/StatefulPartitionedCall/StatefulPartitionedCall/StatefulPartitionedCall/blocks_7/StatefulPartitionedCall/conv2d/Conv2D_weights", "shape": [1, 1, 96, 384], "dtype": "float32"}, {"name": "StatefulPartitionedCall/sequential_2/efficientnet_v2_s2/StatefulPartitionedCall/StatefulPartitionedCall/StatefulPartitionedCall/blocks_19/StatefulPartitionedCall/depthwise_conv2d/depthwise_weights", "shape": [3, 3, 1152, 1], "dtype": "float32"}, {"name": "StatefulPartitionedCall/sequential_2/efficientnet_v2_s2/StatefulPartitionedCall/StatefulPartitionedCall/StatefulPartitionedCall/blocks_7/StatefulPartitionedCall/conv2d/Conv2D_bn_offset", "shape": [384], "dtype": "float32"}, {"name": "StatefulPartitionedCall/sequential_2/efficientnet_v2_s2/StatefulPartitionedCall/StatefulPartitionedCall/StatefulPartitionedCall/blocks_7/StatefulPartitionedCall/depthwise_conv2d/depthwise_weights", "shape": [3, 3, 384, 1], "dtype": "float32"}, {"name": "StatefulPartitionedCall/sequential_2/efficientnet_v2_s2/StatefulPartitionedCall/StatefulPartitionedCall/StatefulPartitionedCall/blocks_7/StatefulPartitionedCall/depthwise_conv2d/depthwise_bn_offset", "shape": [384], "dtype": "float32"}, {"name": "StatefulPartitionedCall/sequential_2/efficientnet_v2_s2/StatefulPartitionedCall/StatefulPartitionedCall/StatefulPartitionedCall/blocks_19/StatefulPartitionedCall/depthwise_conv2d/depthwise_bn_offset", "shape": [1152], "dtype": "float32"}, {"name": "StatefulPartitionedCall/sequential_2/efficientnet_v2_s2/StatefulPartitionedCall/StatefulPartitionedCall/StatefulPartitionedCall/blocks_7/StatefulPartitionedCall/conv2d_1/Conv2D_weights", "shape": [1, 1, 384, 96], "dtype": "float32"}, {"name": "StatefulPartitionedCall/sequential_2/efficientnet_v2_s2/StatefulPartitionedCall/StatefulPartitionedCall/StatefulPartitionedCall/blocks_7/StatefulPartitionedCall/conv2d_1/Conv2D_bn_offset", "shape": [96], "dtype": "float32"}, {"name": "StatefulPartitionedCall/sequential_2/efficientnet_v2_s2/StatefulPartitionedCall/StatefulPartitionedCall/StatefulPartitionedCall/blocks_8/StatefulPartitionedCall/conv2d/Conv2D_weights", "shape": [1, 1, 96, 576], "dtype": "float32"}, {"name": "StatefulPartitionedCall/sequential_2/efficientnet_v2_s2/StatefulPartitionedCall/StatefulPartitionedCall/StatefulPartitionedCall/blocks_8/StatefulPartitionedCall/conv2d/Conv2D_bn_offset", "shape": [576], "dtype": "float32"}, {"name": "StatefulPartitionedCall/sequential_2/efficientnet_v2_s2/StatefulPartitionedCall/StatefulPartitionedCall/StatefulPartitionedCall/blocks_8/StatefulPartitionedCall/depthwise_conv2d/depthwise_weights", "shape": [3, 3, 576, 1], "dtype": "float32"}, {"name": "StatefulPartitionedCall/sequential_2/efficientnet_v2_s2/StatefulPartitionedCall/StatefulPartitionedCall/StatefulPartitionedCall/blocks_8/StatefulPartitionedCall/depthwise_conv2d/depthwise_bn_offset", "shape": [576], "dtype": "float32"}, {"name": "StatefulPartitionedCall/sequential_2/efficientnet_v2_s2/StatefulPartitionedCall/StatefulPartitionedCall/StatefulPartitionedCall/blocks_8/StatefulPartitionedCall/conv2d_1/Conv2D_weights", "shape": [1, 1, 576, 112], "dtype": "float32"}, {"name": "StatefulPartitionedCall/sequential_2/efficientnet_v2_s2/StatefulPartitionedCall/StatefulPartitionedCall/StatefulPartitionedCall/blocks_8/StatefulPartitionedCall/conv2d_1/Conv2D_bn_offset", "shape": [112], "dtype": "float32"}, {"name": "StatefulPartitionedCall/sequential_2/efficientnet_v2_s2/StatefulPartitionedCall/StatefulPartitionedCall/StatefulPartitionedCall/blocks_9/StatefulPartitionedCall/conv2d/Conv2D_weights", "shape": [1, 1, 112, 672], "dtype": "float32"}, {"name": "StatefulPartitionedCall/sequential_2/efficientnet_v2_s2/StatefulPartitionedCall/StatefulPartitionedCall/StatefulPartitionedCall/blocks_9/StatefulPartitionedCall/conv2d/Conv2D_bn_offset", "shape": [672], "dtype": "float32"}, {"name": "StatefulPartitionedCall/sequential_2/efficientnet_v2_s2/StatefulPartitionedCall/StatefulPartitionedCall/StatefulPartitionedCall/blocks_9/StatefulPartitionedCall/depthwise_conv2d/depthwise_weights", "shape": [3, 3, 672, 1], "dtype": "float32"}, {"name": "StatefulPartitionedCall/sequential_2/efficientnet_v2_s2/StatefulPartitionedCall/StatefulPartitionedCall/StatefulPartitionedCall/blocks_9/StatefulPartitionedCall/depthwise_conv2d/depthwise_bn_offset", "shape": [672], "dtype": "float32"}, {"name": "StatefulPartitionedCall/sequential_2/efficientnet_v2_s2/StatefulPartitionedCall/StatefulPartitionedCall/StatefulPartitionedCall/blocks_9/StatefulPartitionedCall/conv2d_1/Conv2D_weights", "shape": [1, 1, 672, 112], "dtype": "float32"}, {"name": "StatefulPartitionedCall/sequential_2/efficientnet_v2_s2/StatefulPartitionedCall/StatefulPartitionedCall/StatefulPartitionedCall/blocks_9/StatefulPartitionedCall/conv2d_1/Conv2D_bn_offset", "shape": [112], "dtype": "float32"}, {"name": "StatefulPartitionedCall/sequential_2/efficientnet_v2_s2/StatefulPartitionedCall/StatefulPartitionedCall/StatefulPartitionedCall/blocks_10/StatefulPartitionedCall/conv2d/Conv2D_weights", "shape": [1, 1, 112, 672], "dtype": "float32"}, {"name": "StatefulPartitionedCall/sequential_2/efficientnet_v2_s2/StatefulPartitionedCall/StatefulPartitionedCall/StatefulPartitionedCall/blocks_10/StatefulPartitionedCall/conv2d/Conv2D_bn_offset", "shape": [672], "dtype": "float32"}, {"name": "StatefulPartitionedCall/sequential_2/efficientnet_v2_s2/StatefulPartitionedCall/StatefulPartitionedCall/StatefulPartitionedCall/blocks_10/StatefulPartitionedCall/depthwise_conv2d/depthwise_weights", "shape": [3, 3, 672, 1], "dtype": "float32"}, {"name": "StatefulPartitionedCall/sequential_2/efficientnet_v2_s2/StatefulPartitionedCall/StatefulPartitionedCall/StatefulPartitionedCall/blocks_10/StatefulPartitionedCall/depthwise_conv2d/depthwise_bn_offset", "shape": [672], "dtype": "float32"}, {"name": "StatefulPartitionedCall/sequential_2/efficientnet_v2_s2/StatefulPartitionedCall/StatefulPartitionedCall/StatefulPartitionedCall/blocks_10/StatefulPartitionedCall/conv2d_1/Conv2D_weights", "shape": [1, 1, 672, 112], "dtype": "float32"}, {"name": "StatefulPartitionedCall/sequential_2/efficientnet_v2_s2/StatefulPartitionedCall/StatefulPartitionedCall/StatefulPartitionedCall/blocks_19/StatefulPartitionedCall/conv2d_1/Conv2D_weights", "shape": [1, 1, 1152, 192], "dtype": "float32"}, {"name": "StatefulPartitionedCall/sequential_2/efficientnet_v2_s2/StatefulPartitionedCall/StatefulPartitionedCall/StatefulPartitionedCall/blocks_10/StatefulPartitionedCall/conv2d_1/Conv2D_bn_offset", "shape": [112], "dtype": "float32"}, {"name": "StatefulPartitionedCall/sequential_2/efficientnet_v2_s2/StatefulPartitionedCall/StatefulPartitionedCall/StatefulPartitionedCall/blocks_11/StatefulPartitionedCall/conv2d/Conv2D_weights", "shape": [1, 1, 112, 672], "dtype": "float32"}, {"name": "StatefulPartitionedCall/sequential_2/efficientnet_v2_s2/StatefulPartitionedCall/StatefulPartitionedCall/StatefulPartitionedCall/blocks_11/StatefulPartitionedCall/conv2d/Conv2D_bn_offset", "shape": [672], "dtype": "float32"}, {"name": "StatefulPartitionedCall/sequential_2/efficientnet_v2_s2/StatefulPartitionedCall/StatefulPartitionedCall/StatefulPartitionedCall/blocks_11/StatefulPartitionedCall/depthwise_conv2d/depthwise_weights", "shape": [3, 3, 672, 1], "dtype": "float32"}, {"name": "StatefulPartitionedCall/sequential_2/efficientnet_v2_s2/StatefulPartitionedCall/StatefulPartitionedCall/StatefulPartitionedCall/blocks_11/StatefulPartitionedCall/depthwise_conv2d/depthwise_bn_offset", "shape": [672], "dtype": "float32"}, {"name": "StatefulPartitionedCall/sequential_2/efficientnet_v2_s2/StatefulPartitionedCall/StatefulPartitionedCall/StatefulPartitionedCall/blocks_19/StatefulPartitionedCall/conv2d_1/Conv2D_bn_offset", "shape": [192], "dtype": "float32"}, {"name": "StatefulPartitionedCall/sequential_2/efficientnet_v2_s2/StatefulPartitionedCall/StatefulPartitionedCall/StatefulPartitionedCall/blocks_11/StatefulPartitionedCall/conv2d_1/Conv2D_weights", "shape": [1, 1, 672, 112], "dtype": "float32"}, {"name": "StatefulPartitionedCall/sequential_2/efficientnet_v2_s2/StatefulPartitionedCall/StatefulPartitionedCall/StatefulPartitionedCall/blocks_11/StatefulPartitionedCall/conv2d_1/Conv2D_bn_offset", "shape": [112], "dtype": "float32"}, {"name": "StatefulPartitionedCall/sequential_2/efficientnet_v2_s2/StatefulPartitionedCall/StatefulPartitionedCall/StatefulPartitionedCall/blocks_12/StatefulPartitionedCall/conv2d/Conv2D_weights", "shape": [1, 1, 112, 672], "dtype": "float32"}, {"name": "StatefulPartitionedCall/sequential_2/efficientnet_v2_s2/StatefulPartitionedCall/StatefulPartitionedCall/StatefulPartitionedCall/blocks_20/StatefulPartitionedCall/conv2d/Conv2D_weights", "shape": [1, 1, 192, 1152], "dtype": "float32"}, {"name": "StatefulPartitionedCall/sequential_2/efficientnet_v2_s2/StatefulPartitionedCall/StatefulPartitionedCall/StatefulPartitionedCall/blocks_12/StatefulPartitionedCall/conv2d/Conv2D_bn_offset", "shape": [672], "dtype": "float32"}, {"name": "StatefulPartitionedCall/sequential_2/efficientnet_v2_s2/StatefulPartitionedCall/StatefulPartitionedCall/StatefulPartitionedCall/blocks_12/StatefulPartitionedCall/depthwise_conv2d/depthwise_weights", "shape": [3, 3, 672, 1], "dtype": "float32"}, {"name": "StatefulPartitionedCall/sequential_2/efficientnet_v2_s2/StatefulPartitionedCall/StatefulPartitionedCall/StatefulPartitionedCall/blocks_12/StatefulPartitionedCall/depthwise_conv2d/depthwise_bn_offset", "shape": [672], "dtype": "float32"}, {"name": "StatefulPartitionedCall/sequential_2/efficientnet_v2_s2/StatefulPartitionedCall/StatefulPartitionedCall/StatefulPartitionedCall/blocks_20/StatefulPartitionedCall/conv2d/Conv2D_bn_offset", "shape": [1152], "dtype": "float32"}, {"name": "StatefulPartitionedCall/sequential_2/efficientnet_v2_s2/StatefulPartitionedCall/StatefulPartitionedCall/StatefulPartitionedCall/blocks_12/StatefulPartitionedCall/conv2d_1/Conv2D_weights", "shape": [1, 1, 672, 112], "dtype": "float32"}, {"name": "StatefulPartitionedCall/sequential_2/efficientnet_v2_s2/StatefulPartitionedCall/StatefulPartitionedCall/StatefulPartitionedCall/blocks_12/StatefulPartitionedCall/conv2d_1/Conv2D_bn_offset", "shape": [112], "dtype": "float32"}, {"name": "StatefulPartitionedCall/sequential_2/efficientnet_v2_s2/StatefulPartitionedCall/StatefulPartitionedCall/StatefulPartitionedCall/blocks_13/StatefulPartitionedCall/conv2d/Conv2D_weights", "shape": [1, 1, 112, 672], "dtype": "float32"}, {"name": "StatefulPartitionedCall/sequential_2/efficientnet_v2_s2/StatefulPartitionedCall/StatefulPartitionedCall/StatefulPartitionedCall/blocks_13/StatefulPartitionedCall/conv2d/Conv2D_bn_offset", "shape": [672], "dtype": "float32"}, {"name": "StatefulPartitionedCall/sequential_2/efficientnet_v2_s2/StatefulPartitionedCall/StatefulPartitionedCall/StatefulPartitionedCall/blocks_13/StatefulPartitionedCall/depthwise_conv2d/depthwise_weights", "shape": [3, 3, 672, 1], "dtype": "float32"}, {"name": "StatefulPartitionedCall/sequential_2/efficientnet_v2_s2/StatefulPartitionedCall/StatefulPartitionedCall/StatefulPartitionedCall/blocks_13/StatefulPartitionedCall/depthwise_conv2d/depthwise_bn_offset", "shape": [672], "dtype": "float32"}, {"name": "StatefulPartitionedCall/sequential_2/efficientnet_v2_s2/StatefulPartitionedCall/StatefulPartitionedCall/StatefulPartitionedCall/blocks_20/StatefulPartitionedCall/depthwise_conv2d/depthwise_weights", "shape": [3, 3, 1152, 1], "dtype": "float32"}, {"name": "StatefulPartitionedCall/sequential_2/efficientnet_v2_s2/StatefulPartitionedCall/StatefulPartitionedCall/StatefulPartitionedCall/blocks_13/StatefulPartitionedCall/conv2d_1/Conv2D_weights", "shape": [1, 1, 672, 192], "dtype": "float32"}, {"name": "StatefulPartitionedCall/sequential_2/efficientnet_v2_s2/StatefulPartitionedCall/StatefulPartitionedCall/StatefulPartitionedCall/blocks_13/StatefulPartitionedCall/conv2d_1/Conv2D_bn_offset", "shape": [192], "dtype": "float32"}, {"name": "StatefulPartitionedCall/sequential_2/efficientnet_v2_s2/StatefulPartitionedCall/StatefulPartitionedCall/StatefulPartitionedCall/blocks_14/StatefulPartitionedCall/conv2d/Conv2D_weights", "shape": [1, 1, 192, 1152], "dtype": "float32"}, {"name": "StatefulPartitionedCall/sequential_2/efficientnet_v2_s2/StatefulPartitionedCall/StatefulPartitionedCall/StatefulPartitionedCall/blocks_20/StatefulPartitionedCall/depthwise_conv2d/depthwise_bn_offset", "shape": [1152], "dtype": "float32"}, {"name": "StatefulPartitionedCall/sequential_2/efficientnet_v2_s2/StatefulPartitionedCall/StatefulPartitionedCall/StatefulPartitionedCall/blocks_14/StatefulPartitionedCall/conv2d/Conv2D_bn_offset", "shape": [1152], "dtype": "float32"}, {"name": "StatefulPartitionedCall/sequential_2/efficientnet_v2_s2/StatefulPartitionedCall/StatefulPartitionedCall/StatefulPartitionedCall/blocks_14/StatefulPartitionedCall/depthwise_conv2d/depthwise_weights", "shape": [3, 3, 1152, 1], "dtype": "float32"}, {"name": "StatefulPartitionedCall/sequential_2/efficientnet_v2_s2/StatefulPartitionedCall/StatefulPartitionedCall/StatefulPartitionedCall/blocks_14/StatefulPartitionedCall/depthwise_conv2d/depthwise_bn_offset", "shape": [1152], "dtype": "float32"}, {"name": "StatefulPartitionedCall/sequential_2/efficientnet_v2_s2/StatefulPartitionedCall/StatefulPartitionedCall/StatefulPartitionedCall/blocks_14/StatefulPartitionedCall/conv2d_1/Conv2D_weights", "shape": [1, 1, 1152, 192], "dtype": "float32"}, {"name": "StatefulPartitionedCall/sequential_2/efficientnet_v2_s2/StatefulPartitionedCall/StatefulPartitionedCall/StatefulPartitionedCall/blocks_14/StatefulPartitionedCall/conv2d_1/Conv2D_bn_offset", "shape": [192], "dtype": "float32"}, {"name": "StatefulPartitionedCall/sequential_2/efficientnet_v2_s2/StatefulPartitionedCall/StatefulPartitionedCall/StatefulPartitionedCall/blocks_15/StatefulPartitionedCall/conv2d/Conv2D_weights", "shape": [1, 1, 192, 1152], "dtype": "float32"}, {"name": "StatefulPartitionedCall/sequential_2/efficientnet_v2_s2/StatefulPartitionedCall/StatefulPartitionedCall/StatefulPartitionedCall/blocks_15/StatefulPartitionedCall/conv2d/Conv2D_bn_offset", "shape": [1152], "dtype": "float32"}, {"name": "StatefulPartitionedCall/sequential_2/efficientnet_v2_s2/StatefulPartitionedCall/StatefulPartitionedCall/StatefulPartitionedCall/blocks_15/StatefulPartitionedCall/depthwise_conv2d/depthwise_weights", "shape": [3, 3, 1152, 1], "dtype": "float32"}, {"name": "StatefulPartitionedCall/sequential_2/efficientnet_v2_s2/StatefulPartitionedCall/StatefulPartitionedCall/StatefulPartitionedCall/blocks_15/StatefulPartitionedCall/depthwise_conv2d/depthwise_bn_offset", "shape": [1152], "dtype": "float32"}, {"name": "StatefulPartitionedCall/sequential_2/efficientnet_v2_s2/StatefulPartitionedCall/StatefulPartitionedCall/StatefulPartitionedCall/blocks_15/StatefulPartitionedCall/conv2d_1/Conv2D_weights", "shape": [1, 1, 1152, 192], "dtype": "float32"}, {"name": "StatefulPartitionedCall/sequential_2/efficientnet_v2_s2/StatefulPartitionedCall/StatefulPartitionedCall/StatefulPartitionedCall/blocks_15/StatefulPartitionedCall/conv2d_1/Conv2D_bn_offset", "shape": [192], "dtype": "float32"}, {"name": "StatefulPartitionedCall/sequential_2/efficientnet_v2_s2/StatefulPartitionedCall/StatefulPartitionedCall/StatefulPartitionedCall/blocks_16/StatefulPartitionedCall/conv2d/Conv2D_weights", "shape": [1, 1, 192, 1152], "dtype": "float32"}, {"name": "StatefulPartitionedCall/sequential_2/efficientnet_v2_s2/StatefulPartitionedCall/StatefulPartitionedCall/StatefulPartitionedCall/blocks_16/StatefulPartitionedCall/conv2d/Conv2D_bn_offset", "shape": [1152], "dtype": "float32"}, {"name": "StatefulPartitionedCall/sequential_2/efficientnet_v2_s2/StatefulPartitionedCall/StatefulPartitionedCall/StatefulPartitionedCall/blocks_16/StatefulPartitionedCall/depthwise_conv2d/depthwise_weights", "shape": [3, 3, 1152, 1], "dtype": "float32"}, {"name": "StatefulPartitionedCall/sequential_2/efficientnet_v2_s2/StatefulPartitionedCall/StatefulPartitionedCall/StatefulPartitionedCall/blocks_16/StatefulPartitionedCall/depthwise_conv2d/depthwise_bn_offset", "shape": [1152], "dtype": "float32"}, {"name": "StatefulPartitionedCall/sequential_2/efficientnet_v2_s2/StatefulPartitionedCall/StatefulPartitionedCall/StatefulPartitionedCall/blocks_16/StatefulPartitionedCall/conv2d_1/Conv2D_weights", "shape": [1, 1, 1152, 192], "dtype": "float32"}, {"name": "StatefulPartitionedCall/sequential_2/efficientnet_v2_s2/StatefulPartitionedCall/StatefulPartitionedCall/StatefulPartitionedCall/blocks_16/StatefulPartitionedCall/conv2d_1/Conv2D_bn_offset", "shape": [192], "dtype": "float32"}, {"name": "StatefulPartitionedCall/sequential_2/efficientnet_v2_s2/StatefulPartitionedCall/StatefulPartitionedCall/StatefulPartitionedCall/blocks_17/StatefulPartitionedCall/conv2d/Conv2D_weights", "shape": [1, 1, 192, 1152], "dtype": "float32"}, {"name": "StatefulPartitionedCall/sequential_2/efficientnet_v2_s2/StatefulPartitionedCall/StatefulPartitionedCall/StatefulPartitionedCall/blocks_17/StatefulPartitionedCall/conv2d/Conv2D_bn_offset", "shape": [1152], "dtype": "float32"}, {"name": "StatefulPartitionedCall/sequential_2/efficientnet_v2_s2/StatefulPartitionedCall/StatefulPartitionedCall/StatefulPartitionedCall/blocks_17/StatefulPartitionedCall/depthwise_conv2d/depthwise_weights", "shape": [3, 3, 1152, 1], "dtype": "float32"}, {"name": "StatefulPartitionedCall/sequential_2/efficientnet_v2_s2/StatefulPartitionedCall/StatefulPartitionedCall/StatefulPartitionedCall/blocks_17/StatefulPartitionedCall/depthwise_conv2d/depthwise_bn_offset", "shape": [1152], "dtype": "float32"}, {"name": "StatefulPartitionedCall/sequential_2/efficientnet_v2_s2/StatefulPartitionedCall/StatefulPartitionedCall/StatefulPartitionedCall/blocks_20/StatefulPartitionedCall/conv2d_1/Conv2D_weights", "shape": [1, 1, 1152, 192], "dtype": "float32"}, {"name": "StatefulPartitionedCall/sequential_2/efficientnet_v2_s2/StatefulPartitionedCall/StatefulPartitionedCall/StatefulPartitionedCall/blocks_17/StatefulPartitionedCall/conv2d_1/Conv2D_weights", "shape": [1, 1, 1152, 192], "dtype": "float32"}, {"name": "StatefulPartitionedCall/sequential_2/efficientnet_v2_s2/StatefulPartitionedCall/StatefulPartitionedCall/StatefulPartitionedCall/blocks_20/StatefulPartitionedCall/conv2d_1/Conv2D_bn_offset", "shape": [192], "dtype": "float32"}, {"name": "StatefulPartitionedCall/sequential_2/efficientnet_v2_s2/StatefulPartitionedCall/StatefulPartitionedCall/StatefulPartitionedCall/blocks_17/StatefulPartitionedCall/conv2d_1/Conv2D_bn_offset", "shape": [192], "dtype": "float32"}, {"name": "StatefulPartitionedCall/sequential_2/efficientnet_v2_s2/StatefulPartitionedCall/StatefulPartitionedCall/StatefulPartitionedCall/blocks_18/StatefulPartitionedCall/conv2d/Conv2D_weights", "shape": [1, 1, 192, 1152], "dtype": "float32"}, {"name": "StatefulPartitionedCall/sequential_2/efficientnet_v2_s2/StatefulPartitionedCall/StatefulPartitionedCall/StatefulPartitionedCall/blocks_18/StatefulPartitionedCall/conv2d/Conv2D_bn_offset", "shape": [1152], "dtype": "float32"}, {"name": "StatefulPartitionedCall/sequential_2/efficientnet_v2_s2/StatefulPartitionedCall/StatefulPartitionedCall/StatefulPartitionedCall/blocks_18/StatefulPartitionedCall/depthwise_conv2d/depthwise_weights", "shape": [3, 3, 1152, 1], "dtype": "float32"}, {"name": "StatefulPartitionedCall/sequential_2/efficientnet_v2_s2/StatefulPartitionedCall/StatefulPartitionedCall/StatefulPartitionedCall/blocks_18/StatefulPartitionedCall/depthwise_conv2d/depthwise_bn_offset", "shape": [1152], "dtype": "float32"}, {"name": "StatefulPartitionedCall/sequential_2/efficientnet_v2_s2/StatefulPartitionedCall/StatefulPartitionedCall/StatefulPartitionedCall/blocks_20/StatefulPartitionedCall/se/Mean/reduction_indices", "shape": [2], "dtype": "int32"}, {"name": "StatefulPartitionedCall/sequential_2/efficientnet_v2_s2/StatefulPartitionedCall/StatefulPartitionedCall/StatefulPartitionedCall/blocks_20/StatefulPartitionedCall/se/conv2d/Conv2D/ReadVariableOp", "shape": [1, 1, 1152, 48], "dtype": "float32"}, {"name": "StatefulPartitionedCall/sequential_2/efficientnet_v2_s2/StatefulPartitionedCall/StatefulPartitionedCall/StatefulPartitionedCall/blocks_20/StatefulPartitionedCall/se/conv2d/BiasAdd/ReadVariableOp", "shape": [48], "dtype": "float32"}, {"name": "StatefulPartitionedCall/sequential_2/efficientnet_v2_s2/StatefulPartitionedCall/StatefulPartitionedCall/StatefulPartitionedCall/blocks_20/StatefulPartitionedCall/se/conv2d_1/Conv2D/ReadVariableOp", "shape": [1, 1, 48, 1152], "dtype": "float32"}, {"name": "StatefulPartitionedCall/sequential_2/efficientnet_v2_s2/StatefulPartitionedCall/StatefulPartitionedCall/StatefulPartitionedCall/blocks_20/StatefulPartitionedCall/se/conv2d_1/BiasAdd/ReadVariableOp", "shape": [1152], "dtype": "float32"}, {"name": "StatefulPartitionedCall/sequential_2/efficientnet_v2_s2/StatefulPartitionedCall/StatefulPartitionedCall/StatefulPartitionedCall/blocks_19/StatefulPartitionedCall/se/Mean/reduction_indices", "shape": [2], "dtype": "int32"}, {"name": "StatefulPartitionedCall/sequential_2/efficientnet_v2_s2/StatefulPartitionedCall/StatefulPartitionedCall/StatefulPartitionedCall/blocks_19/StatefulPartitionedCall/se/conv2d/Conv2D/ReadVariableOp", "shape": [1, 1, 1152, 48], "dtype": "float32"}, {"name": "StatefulPartitionedCall/sequential_2/efficientnet_v2_s2/StatefulPartitionedCall/StatefulPartitionedCall/StatefulPartitionedCall/blocks_19/StatefulPartitionedCall/se/conv2d/BiasAdd/ReadVariableOp", "shape": [48], "dtype": "float32"}, {"name": "StatefulPartitionedCall/sequential_2/efficientnet_v2_s2/StatefulPartitionedCall/StatefulPartitionedCall/StatefulPartitionedCall/blocks_19/StatefulPartitionedCall/se/conv2d_1/Conv2D/ReadVariableOp", "shape": [1, 1, 48, 1152], "dtype": "float32"}, {"name": "StatefulPartitionedCall/sequential_2/efficientnet_v2_s2/StatefulPartitionedCall/StatefulPartitionedCall/StatefulPartitionedCall/blocks_19/StatefulPartitionedCall/se/conv2d_1/BiasAdd/ReadVariableOp", "shape": [1152], "dtype": "float32"}, {"name": "StatefulPartitionedCall/sequential_2/efficientnet_v2_s2/StatefulPartitionedCall/StatefulPartitionedCall/StatefulPartitionedCall/blocks_18/StatefulPartitionedCall/se/Mean/reduction_indices", "shape": [2], "dtype": "int32"}, {"name": "StatefulPartitionedCall/sequential_2/efficientnet_v2_s2/StatefulPartitionedCall/StatefulPartitionedCall/StatefulPartitionedCall/blocks_18/StatefulPartitionedCall/se/conv2d/Conv2D/ReadVariableOp", "shape": [1, 1, 1152, 48], "dtype": "float32"}, {"name": "StatefulPartitionedCall/sequential_2/efficientnet_v2_s2/StatefulPartitionedCall/StatefulPartitionedCall/StatefulPartitionedCall/blocks_18/StatefulPartitionedCall/se/conv2d/BiasAdd/ReadVariableOp", "shape": [48], "dtype": "float32"}, {"name": "StatefulPartitionedCall/sequential_2/efficientnet_v2_s2/StatefulPartitionedCall/StatefulPartitionedCall/StatefulPartitionedCall/blocks_18/StatefulPartitionedCall/se/conv2d_1/Conv2D/ReadVariableOp", "shape": [1, 1, 48, 1152], "dtype": "float32"}, {"name": "StatefulPartitionedCall/sequential_2/efficientnet_v2_s2/StatefulPartitionedCall/StatefulPartitionedCall/StatefulPartitionedCall/blocks_18/StatefulPartitionedCall/se/conv2d_1/BiasAdd/ReadVariableOp", "shape": [1152], "dtype": "float32"}, {"name": "StatefulPartitionedCall/sequential_2/efficientnet_v2_s2/StatefulPartitionedCall/StatefulPartitionedCall/StatefulPartitionedCall/blocks_17/StatefulPartitionedCall/se/Mean/reduction_indices", "shape": [2], "dtype": "int32"}, {"name": "StatefulPartitionedCall/sequential_2/efficientnet_v2_s2/StatefulPartitionedCall/StatefulPartitionedCall/StatefulPartitionedCall/blocks_17/StatefulPartitionedCall/se/conv2d/Conv2D/ReadVariableOp", "shape": [1, 1, 1152, 48], "dtype": "float32"}, {"name": "StatefulPartitionedCall/sequential_2/efficientnet_v2_s2/StatefulPartitionedCall/StatefulPartitionedCall/StatefulPartitionedCall/blocks_17/StatefulPartitionedCall/se/conv2d/BiasAdd/ReadVariableOp", "shape": [48], "dtype": "float32"}, {"name": "StatefulPartitionedCall/sequential_2/efficientnet_v2_s2/StatefulPartitionedCall/StatefulPartitionedCall/StatefulPartitionedCall/blocks_17/StatefulPartitionedCall/se/conv2d_1/Conv2D/ReadVariableOp", "shape": [1, 1, 48, 1152], "dtype": "float32"}, {"name": "StatefulPartitionedCall/sequential_2/efficientnet_v2_s2/StatefulPartitionedCall/StatefulPartitionedCall/StatefulPartitionedCall/blocks_17/StatefulPartitionedCall/se/conv2d_1/BiasAdd/ReadVariableOp", "shape": [1152], "dtype": "float32"}, {"name": "StatefulPartitionedCall/sequential_2/efficientnet_v2_s2/StatefulPartitionedCall/StatefulPartitionedCall/StatefulPartitionedCall/blocks_16/StatefulPartitionedCall/se/Mean/reduction_indices", "shape": [2], "dtype": "int32"}, {"name": "StatefulPartitionedCall/sequential_2/efficientnet_v2_s2/StatefulPartitionedCall/StatefulPartitionedCall/StatefulPartitionedCall/blocks_16/StatefulPartitionedCall/se/conv2d/Conv2D/ReadVariableOp", "shape": [1, 1, 1152, 48], "dtype": "float32"}, {"name": "StatefulPartitionedCall/sequential_2/efficientnet_v2_s2/StatefulPartitionedCall/StatefulPartitionedCall/StatefulPartitionedCall/blocks_16/StatefulPartitionedCall/se/conv2d/BiasAdd/ReadVariableOp", "shape": [48], "dtype": "float32"}, {"name": "StatefulPartitionedCall/sequential_2/efficientnet_v2_s2/StatefulPartitionedCall/StatefulPartitionedCall/StatefulPartitionedCall/blocks_16/StatefulPartitionedCall/se/conv2d_1/Conv2D/ReadVariableOp", "shape": [1, 1, 48, 1152], "dtype": "float32"}, {"name": "StatefulPartitionedCall/sequential_2/efficientnet_v2_s2/StatefulPartitionedCall/StatefulPartitionedCall/StatefulPartitionedCall/blocks_16/StatefulPartitionedCall/se/conv2d_1/BiasAdd/ReadVariableOp", "shape": [1152], "dtype": "float32"}, {"name": "StatefulPartitionedCall/sequential_2/efficientnet_v2_s2/StatefulPartitionedCall/StatefulPartitionedCall/StatefulPartitionedCall/blocks_15/StatefulPartitionedCall/se/Mean/reduction_indices", "shape": [2], "dtype": "int32"}, {"name": "StatefulPartitionedCall/sequential_2/efficientnet_v2_s2/StatefulPartitionedCall/StatefulPartitionedCall/StatefulPartitionedCall/blocks_15/StatefulPartitionedCall/se/conv2d/Conv2D/ReadVariableOp", "shape": [1, 1, 1152, 48], "dtype": "float32"}, {"name": "StatefulPartitionedCall/sequential_2/efficientnet_v2_s2/StatefulPartitionedCall/StatefulPartitionedCall/StatefulPartitionedCall/blocks_15/StatefulPartitionedCall/se/conv2d/BiasAdd/ReadVariableOp", "shape": [48], "dtype": "float32"}, {"name": "StatefulPartitionedCall/sequential_2/efficientnet_v2_s2/StatefulPartitionedCall/StatefulPartitionedCall/StatefulPartitionedCall/blocks_15/StatefulPartitionedCall/se/conv2d_1/Conv2D/ReadVariableOp", "shape": [1, 1, 48, 1152], "dtype": "float32"}, {"name": "StatefulPartitionedCall/sequential_2/efficientnet_v2_s2/StatefulPartitionedCall/StatefulPartitionedCall/StatefulPartitionedCall/blocks_15/StatefulPartitionedCall/se/conv2d_1/BiasAdd/ReadVariableOp", "shape": [1152], "dtype": "float32"}, {"name": "StatefulPartitionedCall/sequential_2/efficientnet_v2_s2/StatefulPartitionedCall/StatefulPartitionedCall/StatefulPartitionedCall/blocks_14/StatefulPartitionedCall/se/Mean/reduction_indices", "shape": [2], "dtype": "int32"}, {"name": "StatefulPartitionedCall/sequential_2/efficientnet_v2_s2/StatefulPartitionedCall/StatefulPartitionedCall/StatefulPartitionedCall/blocks_14/StatefulPartitionedCall/se/conv2d/Conv2D/ReadVariableOp", "shape": [1, 1, 1152, 48], "dtype": "float32"}, {"name": "StatefulPartitionedCall/sequential_2/efficientnet_v2_s2/StatefulPartitionedCall/StatefulPartitionedCall/StatefulPartitionedCall/blocks_14/StatefulPartitionedCall/se/conv2d/BiasAdd/ReadVariableOp", "shape": [48], "dtype": "float32"}, {"name": "StatefulPartitionedCall/sequential_2/efficientnet_v2_s2/StatefulPartitionedCall/StatefulPartitionedCall/StatefulPartitionedCall/blocks_14/StatefulPartitionedCall/se/conv2d_1/Conv2D/ReadVariableOp", "shape": [1, 1, 48, 1152], "dtype": "float32"}, {"name": "StatefulPartitionedCall/sequential_2/efficientnet_v2_s2/StatefulPartitionedCall/StatefulPartitionedCall/StatefulPartitionedCall/blocks_14/StatefulPartitionedCall/se/conv2d_1/BiasAdd/ReadVariableOp", "shape": [1152], "dtype": "float32"}, {"name": "StatefulPartitionedCall/sequential_2/efficientnet_v2_s2/StatefulPartitionedCall/StatefulPartitionedCall/StatefulPartitionedCall/blocks_13/StatefulPartitionedCall/se/Mean/reduction_indices", "shape": [2], "dtype": "int32"}, {"name": "StatefulPartitionedCall/sequential_2/efficientnet_v2_s2/StatefulPartitionedCall/StatefulPartitionedCall/StatefulPartitionedCall/blocks_13/StatefulPartitionedCall/se/conv2d/Conv2D/ReadVariableOp", "shape": [1, 1, 672, 28], "dtype": "float32"}, {"name": "StatefulPartitionedCall/sequential_2/efficientnet_v2_s2/StatefulPartitionedCall/StatefulPartitionedCall/StatefulPartitionedCall/blocks_13/StatefulPartitionedCall/se/conv2d/BiasAdd/ReadVariableOp", "shape": [28], "dtype": "float32"}, {"name": "StatefulPartitionedCall/sequential_2/efficientnet_v2_s2/StatefulPartitionedCall/StatefulPartitionedCall/StatefulPartitionedCall/blocks_13/StatefulPartitionedCall/se/conv2d_1/Conv2D/ReadVariableOp", "shape": [1, 1, 28, 672], "dtype": "float32"}, {"name": "StatefulPartitionedCall/sequential_2/efficientnet_v2_s2/StatefulPartitionedCall/StatefulPartitionedCall/StatefulPartitionedCall/blocks_13/StatefulPartitionedCall/se/conv2d_1/BiasAdd/ReadVariableOp", "shape": [672], "dtype": "float32"}, {"name": "StatefulPartitionedCall/sequential_2/efficientnet_v2_s2/StatefulPartitionedCall/StatefulPartitionedCall/StatefulPartitionedCall/blocks_12/StatefulPartitionedCall/se/Mean/reduction_indices", "shape": [2], "dtype": "int32"}, {"name": "StatefulPartitionedCall/sequential_2/efficientnet_v2_s2/StatefulPartitionedCall/StatefulPartitionedCall/StatefulPartitionedCall/blocks_12/StatefulPartitionedCall/se/conv2d/Conv2D/ReadVariableOp", "shape": [1, 1, 672, 28], "dtype": "float32"}, {"name": "StatefulPartitionedCall/sequential_2/efficientnet_v2_s2/StatefulPartitionedCall/StatefulPartitionedCall/StatefulPartitionedCall/blocks_12/StatefulPartitionedCall/se/conv2d/BiasAdd/ReadVariableOp", "shape": [28], "dtype": "float32"}, {"name": "StatefulPartitionedCall/sequential_2/efficientnet_v2_s2/StatefulPartitionedCall/StatefulPartitionedCall/StatefulPartitionedCall/blocks_12/StatefulPartitionedCall/se/conv2d_1/Conv2D/ReadVariableOp", "shape": [1, 1, 28, 672], "dtype": "float32"}, {"name": "StatefulPartitionedCall/sequential_2/efficientnet_v2_s2/StatefulPartitionedCall/StatefulPartitionedCall/StatefulPartitionedCall/blocks_12/StatefulPartitionedCall/se/conv2d_1/BiasAdd/ReadVariableOp", "shape": [672], "dtype": "float32"}, {"name": "StatefulPartitionedCall/sequential_2/efficientnet_v2_s2/StatefulPartitionedCall/StatefulPartitionedCall/StatefulPartitionedCall/blocks_11/StatefulPartitionedCall/se/Mean/reduction_indices", "shape": [2], "dtype": "int32"}, {"name": "StatefulPartitionedCall/sequential_2/efficientnet_v2_s2/StatefulPartitionedCall/StatefulPartitionedCall/StatefulPartitionedCall/blocks_11/StatefulPartitionedCall/se/conv2d/Conv2D/ReadVariableOp", "shape": [1, 1, 672, 28], "dtype": "float32"}, {"name": "StatefulPartitionedCall/sequential_2/efficientnet_v2_s2/StatefulPartitionedCall/StatefulPartitionedCall/StatefulPartitionedCall/blocks_11/StatefulPartitionedCall/se/conv2d/BiasAdd/ReadVariableOp", "shape": [28], "dtype": "float32"}, {"name": "StatefulPartitionedCall/sequential_2/efficientnet_v2_s2/StatefulPartitionedCall/StatefulPartitionedCall/StatefulPartitionedCall/blocks_11/StatefulPartitionedCall/se/conv2d_1/Conv2D/ReadVariableOp", "shape": [1, 1, 28, 672], "dtype": "float32"}, {"name": "StatefulPartitionedCall/sequential_2/efficientnet_v2_s2/StatefulPartitionedCall/StatefulPartitionedCall/StatefulPartitionedCall/blocks_11/StatefulPartitionedCall/se/conv2d_1/BiasAdd/ReadVariableOp", "shape": [672], "dtype": "float32"}, {"name": "StatefulPartitionedCall/sequential_2/efficientnet_v2_s2/StatefulPartitionedCall/StatefulPartitionedCall/StatefulPartitionedCall/blocks_10/StatefulPartitionedCall/se/Mean/reduction_indices", "shape": [2], "dtype": "int32"}, {"name": "StatefulPartitionedCall/sequential_2/efficientnet_v2_s2/StatefulPartitionedCall/StatefulPartitionedCall/StatefulPartitionedCall/blocks_10/StatefulPartitionedCall/se/conv2d/Conv2D/ReadVariableOp", "shape": [1, 1, 672, 28], "dtype": "float32"}, {"name": "StatefulPartitionedCall/sequential_2/efficientnet_v2_s2/StatefulPartitionedCall/StatefulPartitionedCall/StatefulPartitionedCall/blocks_10/StatefulPartitionedCall/se/conv2d/BiasAdd/ReadVariableOp", "shape": [28], "dtype": "float32"}, {"name": "StatefulPartitionedCall/sequential_2/efficientnet_v2_s2/StatefulPartitionedCall/StatefulPartitionedCall/StatefulPartitionedCall/blocks_10/StatefulPartitionedCall/se/conv2d_1/Conv2D/ReadVariableOp", "shape": [1, 1, 28, 672], "dtype": "float32"}, {"name": "StatefulPartitionedCall/sequential_2/efficientnet_v2_s2/StatefulPartitionedCall/StatefulPartitionedCall/StatefulPartitionedCall/blocks_10/StatefulPartitionedCall/se/conv2d_1/BiasAdd/ReadVariableOp", "shape": [672], "dtype": "float32"}, {"name": "StatefulPartitionedCall/sequential_2/efficientnet_v2_s2/StatefulPartitionedCall/StatefulPartitionedCall/StatefulPartitionedCall/blocks_9/StatefulPartitionedCall/se/Mean/reduction_indices", "shape": [2], "dtype": "int32"}, {"name": "StatefulPartitionedCall/sequential_2/efficientnet_v2_s2/StatefulPartitionedCall/StatefulPartitionedCall/StatefulPartitionedCall/blocks_9/StatefulPartitionedCall/se/conv2d/Conv2D/ReadVariableOp", "shape": [1, 1, 672, 28], "dtype": "float32"}, {"name": "StatefulPartitionedCall/sequential_2/efficientnet_v2_s2/StatefulPartitionedCall/StatefulPartitionedCall/StatefulPartitionedCall/blocks_9/StatefulPartitionedCall/se/conv2d/BiasAdd/ReadVariableOp", "shape": [28], "dtype": "float32"}, {"name": "StatefulPartitionedCall/sequential_2/efficientnet_v2_s2/StatefulPartitionedCall/StatefulPartitionedCall/StatefulPartitionedCall/blocks_9/StatefulPartitionedCall/se/conv2d_1/Conv2D/ReadVariableOp", "shape": [1, 1, 28, 672], "dtype": "float32"}, {"name": "StatefulPartitionedCall/sequential_2/efficientnet_v2_s2/StatefulPartitionedCall/StatefulPartitionedCall/StatefulPartitionedCall/blocks_9/StatefulPartitionedCall/se/conv2d_1/BiasAdd/ReadVariableOp", "shape": [672], "dtype": "float32"}, {"name": "StatefulPartitionedCall/sequential_2/efficientnet_v2_s2/StatefulPartitionedCall/StatefulPartitionedCall/StatefulPartitionedCall/blocks_8/StatefulPartitionedCall/se/Mean/reduction_indices", "shape": [2], "dtype": "int32"}, {"name": "StatefulPartitionedCall/sequential_2/efficientnet_v2_s2/StatefulPartitionedCall/StatefulPartitionedCall/StatefulPartitionedCall/blocks_8/StatefulPartitionedCall/se/conv2d/Conv2D/ReadVariableOp", "shape": [1, 1, 576, 24], "dtype": "float32"}, {"name": "StatefulPartitionedCall/sequential_2/efficientnet_v2_s2/StatefulPartitionedCall/StatefulPartitionedCall/StatefulPartitionedCall/blocks_8/StatefulPartitionedCall/se/conv2d/BiasAdd/ReadVariableOp", "shape": [24], "dtype": "float32"}, {"name": "StatefulPartitionedCall/sequential_2/efficientnet_v2_s2/StatefulPartitionedCall/StatefulPartitionedCall/StatefulPartitionedCall/blocks_8/StatefulPartitionedCall/se/conv2d_1/Conv2D/ReadVariableOp", "shape": [1, 1, 24, 576], "dtype": "float32"}, {"name": "StatefulPartitionedCall/sequential_2/efficientnet_v2_s2/StatefulPartitionedCall/StatefulPartitionedCall/StatefulPartitionedCall/blocks_8/StatefulPartitionedCall/se/conv2d_1/BiasAdd/ReadVariableOp", "shape": [576], "dtype": "float32"}, {"name": "StatefulPartitionedCall/sequential_2/efficientnet_v2_s2/StatefulPartitionedCall/StatefulPartitionedCall/StatefulPartitionedCall/blocks_7/StatefulPartitionedCall/se/Mean/reduction_indices", "shape": [2], "dtype": "int32"}, {"name": "StatefulPartitionedCall/sequential_2/efficientnet_v2_s2/StatefulPartitionedCall/StatefulPartitionedCall/StatefulPartitionedCall/blocks_7/StatefulPartitionedCall/se/conv2d/Conv2D/ReadVariableOp", "shape": [1, 1, 384, 24], "dtype": "float32"}, {"name": "StatefulPartitionedCall/sequential_2/efficientnet_v2_s2/StatefulPartitionedCall/StatefulPartitionedCall/StatefulPartitionedCall/blocks_7/StatefulPartitionedCall/se/conv2d/BiasAdd/ReadVariableOp", "shape": [24], "dtype": "float32"}, {"name": "StatefulPartitionedCall/sequential_2/efficientnet_v2_s2/StatefulPartitionedCall/StatefulPartitionedCall/StatefulPartitionedCall/blocks_7/StatefulPartitionedCall/se/conv2d_1/Conv2D/ReadVariableOp", "shape": [1, 1, 24, 384], "dtype": "float32"}, {"name": "StatefulPartitionedCall/sequential_2/efficientnet_v2_s2/StatefulPartitionedCall/StatefulPartitionedCall/StatefulPartitionedCall/blocks_7/StatefulPartitionedCall/se/conv2d_1/BiasAdd/ReadVariableOp", "shape": [384], "dtype": "float32"}, {"name": "StatefulPartitionedCall/sequential_2/efficientnet_v2_s2/StatefulPartitionedCall/StatefulPartitionedCall/StatefulPartitionedCall/blocks_6/StatefulPartitionedCall/se/Mean/reduction_indices", "shape": [2], "dtype": "int32"}, {"name": "StatefulPartitionedCall/sequential_2/efficientnet_v2_s2/StatefulPartitionedCall/StatefulPartitionedCall/StatefulPartitionedCall/blocks_6/StatefulPartitionedCall/se/conv2d/Conv2D/ReadVariableOp", "shape": [1, 1, 384, 24], "dtype": "float32"}, {"name": "StatefulPartitionedCall/sequential_2/efficientnet_v2_s2/StatefulPartitionedCall/StatefulPartitionedCall/StatefulPartitionedCall/blocks_6/StatefulPartitionedCall/se/conv2d/BiasAdd/ReadVariableOp", "shape": [24], "dtype": "float32"}, {"name": "StatefulPartitionedCall/sequential_2/efficientnet_v2_s2/StatefulPartitionedCall/StatefulPartitionedCall/StatefulPartitionedCall/blocks_6/StatefulPartitionedCall/se/conv2d_1/Conv2D/ReadVariableOp", "shape": [1, 1, 24, 384], "dtype": "float32"}, {"name": "StatefulPartitionedCall/sequential_2/efficientnet_v2_s2/StatefulPartitionedCall/StatefulPartitionedCall/StatefulPartitionedCall/blocks_6/StatefulPartitionedCall/se/conv2d_1/BiasAdd/ReadVariableOp", "shape": [384], "dtype": "float32"}, {"name": "StatefulPartitionedCall/sequential_2/efficientnet_v2_s2/StatefulPartitionedCall/StatefulPartitionedCall/StatefulPartitionedCall/blocks_5/StatefulPartitionedCall/se/Mean/reduction_indices", "shape": [2], "dtype": "int32"}, {"name": "StatefulPartitionedCall/sequential_2/efficientnet_v2_s2/StatefulPartitionedCall/StatefulPartitionedCall/StatefulPartitionedCall/blocks_5/StatefulPartitionedCall/se/conv2d/Conv2D/ReadVariableOp", "shape": [1, 1, 192, 12], "dtype": "float32"}, {"name": "StatefulPartitionedCall/sequential_2/efficientnet_v2_s2/StatefulPartitionedCall/StatefulPartitionedCall/StatefulPartitionedCall/blocks_5/StatefulPartitionedCall/se/conv2d/BiasAdd/ReadVariableOp", "shape": [12], "dtype": "float32"}, {"name": "StatefulPartitionedCall/sequential_2/efficientnet_v2_s2/StatefulPartitionedCall/StatefulPartitionedCall/StatefulPartitionedCall/blocks_5/StatefulPartitionedCall/se/conv2d_1/Conv2D/ReadVariableOp", "shape": [1, 1, 12, 192], "dtype": "float32"}, {"name": "StatefulPartitionedCall/sequential_2/efficientnet_v2_s2/StatefulPartitionedCall/StatefulPartitionedCall/StatefulPartitionedCall/blocks_5/StatefulPartitionedCall/se/conv2d_1/BiasAdd/ReadVariableOp", "shape": [192], "dtype": "float32"}, {"name": "StatefulPartitionedCall/sequential_2/efficientnet_v2_s2/StatefulPartitionedCall/StatefulPartitionedCall/StatefulPartitionedCall/head/StatefulPartitionedCall/global_average_pooling2d/Mean/reduction_indices", "shape": [2], "dtype": "int32"}, {"name": "StatefulPartitionedCall/sequential_2/efficientnet_v2_s2/StatefulPartitionedCall/StatefulPartitionedCall/StatefulPartitionedCall/head/dense/StatefulPartitionedCall/MatMul/ReadVariableOp", "shape": [1280, 1000], "dtype": "float32"}, {"name": "StatefulPartitionedCall/sequential_2/efficientnet_v2_s2/StatefulPartitionedCall/StatefulPartitionedCall/StatefulPartitionedCall/head/dense/StatefulPartitionedCall/BiasAdd/ReadVariableOp", "shape": [1000], "dtype": "float32"}]}]}